models/model250000.pt (torch, 15805 bytes, 12 tensors)

dense_layer_1.weight f4 [128, 4]
00000000: 0124 da3e 7642 fc3e d69a ffbe 40a3 5a3e
00000010: a268 18bf 81c9 80be ec70 1240 dc13 13be
00000020: 47d2 863e 0a16 6e3f cebd 3640 ae0a 973f
00000030: fa0e 5e3e de0d 2c3f b8d4 db3f 3c30 263f
00000040: 747a 023d bd89 553c 2070 8ebf 64e7 073e
00000050: e4f4 a0bf e5b6 223d 2cd0 273f 9e11 b73d
00000060: f0c6 32be f93a 93bc d44d 4ebf 08ba 78be
00000070: 402a cdbe c296 03bf 8794 3d3f 59a0 47be
00000080: fc6e 17bf db17 823f 9b01 6540 68fc 913f
00000090: d8b1 d63e 0ff8 2d3f d891 a9bd 1698 2f3e
000000a0: 0a3a 84bd 817f 9b3c 3e6e c8be 6a07 e33e
000000b0: bf05 a1bb b8d0 8ebd 828f f03e abbc 213e
000000c0: 3e0a b73d 81b1 89be 51fe bbbf d25b 8ebe
000000d0: d118 35bf 3073 013e cdf3 95be ea09 5d3e
000000e0: 25c6 a23e 0ff1 333d 3937 67bf e08a b9be
000000f0: 7df8 703d d04e 10be a78e 20be ad66 e5bd
00000100: 7696 2fbd bc7e b1be 68e0 e0bf 5847 babe
00000110: 12a8 c5be 66b6 3abf 5f92 b6be 968a 0ebf
00000120: 7698 af3e c33d 9abe 2647 9dbf be19 b6be
00000130: 350c 00c0 6ff8 c9be 4af2 753f c561 db3e
00000140: cc2f dabf 0b2e 02bf 8fa6 143f a22e d9be
00000150: 9918 d03e 5837 7f3d fe05 65bf 4434 e9be
00000160: f75e 373e bc08 e13d 2176 7ec0 0042 1cbf
00000170: 0749 293f db5d 073f 9593 acbe 5798 ca3e
00000180: 945f 973f be59 d93e 8b94 b5bf d895 b5be
00000190: 3828 ca3d 1bfb 213c df52 dcc0 2e69 3bbf
000001a0: de35 d23e d387 87be 9e58 2cbf 8638 d5be
000001b0: b057 8ebf 9241 c4be ee0c 863f 37b1 36be
000001c0: 43e1 1fbf c1cf 66bf cf2c 47c0 98ea 4fbf
000001d0: d0b4 b53d fbd7 4b3d 22dd cec0 4b30 48bf
000001e0: 796d 823f 41ff a23e 4703 32c0 cb17 91be
000001f0: 250a 7a3e 4d8f 6f3d 6f07 90bf af62 d1be
00000200: a087 ff3d 150c 17bd 570c 6abe c770 603d
00000210: 8785 11be e92a b03e 26f7 96bf 1f97 30bd
00000220: e80c bf3e 8d19 71be 918f 233f b51e b1bd
00000230: 8caf b43d 1569 a1be c3ed ecbe 3fb8 dcbe
00000240: b5bc 64be 55bb 863e a870 1bbf 6d08 703e
00000250: 5c1d 3f3f 239f 453e 9b39 d93f 99c3 09be
00000260: d90f a93e 6aec e8bc a34e e7be be32 bfbe
00000270: 07b6 983e 15c1 ac3e 44df 65bf 6d52 3fbe
00000280: 0a5a b43e 9685 733f 4239 6ebf c004 14be
00000290: 11cd 3e3d 93ba d03d e1dd a2bf c758 483e
000002a0: ddc9 b4bd c512 983d a21e ba40 ba41 fc3e
000002b0: eba2 a63f b813 793e 1abf 2bbf ac36 8e3d
000002c0: e862 6cbe ddd4 733e 2a2b 00bf e6c2 99be
000002d0: fb00 af3d a8b1 b4be 9e82 10c0 0f2d 8bbe
000002e0: f999 333f 4ddb 133f fc21 a83d ba55 8e3e
000002f0: 2d0e 9fbe 6492 c53d 56da 61bf 10b2 00be
00000300: f84f 223f e438 e83e 08df 29bf 7702 9f3e
00000310: fdd6 86be 1531 033c dda8 c0be 2ac6 a43e
00000320: 35cb b4bf 7a7f 07bf f125 74bf f96d abbe
00000330: 5563 563f 81a2 993e 1372 de3d dbec 923e
00000340: 2ee4 e5be e867 503e 24fd 4640 ddeb dd3e
00000350: bef2 87bf 026b d2be 545a 483f 2916 0abe
00000360: 1821 943d d097 04be 7cd2 533e e802 43be
00000370: cd4e 233f cda5 cc3d 15b6 bfbf 46c9 723c
00000380: 1f03 a0be 68b3 603f 265e 7040 3b00 633f
00000390: 1fee c7bf b52f 29bf 40ca 843f ae92 0bbd
000003a0: 62c7 813f 9927 353f b3aa b13f 3c41 813b
000003b0: bbc5 9d3e ae44 ebbe 82d8 acc0 9b0e 32bf
000003c0: b89f 043f b034 f93d dc7e 4cbf 7259 463d
000003d0: f97d e03e 29e4 52be 653c 97bf 5d28 1a3d
000003e0: df18 68bd f47a 893e 5822 8ebf df84 8abe
000003f0: 9c17 823f 99bc 853d b312 29bf b09d 1abc
0.42605594 0.49269456 -0.49922818 0.21351337 -0.59534657 -0.25153735 2.2881422 -0.14363045
0.26332304 0.9300238 2.8553348 1.1800134 0.216854 0.6720866 1.7174292 0.6491735
0.03185506 0.013033328 -1.1127968 0.13271862 -1.2574735 0.039725203 0.6555202 0.08938907
-0.17458701 -0.017972456 -0.80587506 -0.24289715 -0.40071297 -0.51401913 0.7405476 -0.19494762
-0.59153724 1.016353 3.578223 1.1405153 0.4193256 0.6795663 -0.082797706 0.1714786
-0.064563826 0.018981697 -0.39146608 0.44341594 -0.004914015 -0.06973404 0.46984488 0.15794627
0.089375004 -0.26893237 -1.4686986 -0.27804428 -0.7074099 0.12641597 -0.29287568 0.21585813
0.31791797 0.043931063 -0.9031864 -0.36238766 0.058830727 -0.14092565 -0.15679418 -0.112012245
-0.0428681 -0.34667003 -1.7568483 -0.36382556 -0.3860479 -0.7293457 -0.35658547 -0.55680215
0.34296006 -0.30125245 -1.2287338 -0.35566515 -2.000745 -0.39447352 0.9607283 0.4284803
-1.7045836 -0.50851506 0.5806665 -0.4241839 0.40643767 0.06230864 -0.8946227 -0.45547688
0.1790732 0.10987994 -3.97596 -0.6103821 0.66127056 0.5287759 -0.33706346 0.3956935
1.1826043 0.4245128 -1.4185957 -0.35465884 0.09870952 0.009886528 -6.885116 -0.73207366
0.41056722 -0.26470813 -0.6732272 -0.41644686 -1.112051 -0.38331276 1.0472696 -0.1784104
-0.624531 -0.9016076 -3.11211 -0.81217337 0.08872378 0.049766522 -6.4644938 -0.7819869
1.0189658 0.31835368 -2.78145 -0.28338465 0.24417932 0.05848627 -1.1252269 -0.40895602
0.1247704 -0.036876757 -0.2285627 0.054795053 -0.14211093 0.34407738 -1.1794174 -0.04311287
0.37314534 -0.23544903 0.6389094 -0.08648435 0.088225454 -0.31525484 -0.46275148 -0.4310932
-0.22337611 0.26314798 -0.60718775 0.23440714 0.74654174 0.19298987 1.6970705 -0.13453521
0.33019903 -0.028433044 -0.45177183 -0.373434 0.29826376 0.3374106 -0.897938 -0.18683787
0.35224944 0.9512571 -0.9305612 -0.14454937 0.046582285 0.10191836 -1.2723962 0.19565116
-0.08827565 0.07425455 5.8162394 0.49268895 1.3018469 0.24323928 -0.6708847 0.069440216
-0.23084605 0.2381167 -0.50065863 -0.30031508 0.08545109 -0.3529179 -2.2579722 -0.27182814
0.7015682 0.577565 0.08209607 0.2779978 -0.31065503 0.096470624 -0.8822378 -0.12567925
0.6340327 0.45355904 -0.66355944 0.31056568 -0.26335898 0.008007308 -0.37628832 0.32182437
-1.4124514 -0.5292889 -0.95370394 -0.3348234 0.8374532 0.30006793 0.10861602 0.2869633
-0.4490065 0.20352137 3.1092005 0.43344012 -1.0620954 -0.41097265 0.7826283 -0.13485016
0.07232875 -0.12948537 0.20685762 -0.19044077 0.63792115 0.099925615 -1.4977442 0.014818495
-0.3125238 0.8777375 3.7557464 0.88672227 -1.5619544 -0.6608842 1.0374222 -0.03407543
1.0138972 0.70763546 1.3880218 0.003944544 0.3081492 -0.45950836 -5.401429 -0.69553536
0.5180621 0.121682525 -0.7988107 0.048425145 0.4384611 -0.20594849 -1.1815306 0.03763615
-0.056664344 0.26851618 -1.1104231 -0.27054498 1.0163455 0.06530113 -0.6604416 -0.00943701

dense_layer_1.bias f4 [128]
00000000: 8275 073f 695a dabf 7774 f2bf 3b31 aabf
00000010: 7419 883f d743 31c0 50d2 a53f 8472 103f
00000020: 84e2 73bf d68e b33f e53e b13f 1745 8a3f
00000030: 8769 973f 9777 b2bf d880 a83f 3b8c 763f
00000040: 199d 533f 93c1 25be 8c4e 873f 7ddc 83bf
00000050: 59f0 2cbf aae9 cf3f b114 45bf 56bf 2d3f
00000060: 355c ee3e 46e1 b43f 434e e5be e76d 083e
00000070: a9c7 9ebf bdd3 cabf 9cf4 5bbd b259 b33f
00000080: f37f a63f 8ce1 a03f 6495 513f 8d37 973f
00000090: f6cb 9f3f 66d3 a4bf 1ff3 983f cb89 b03f
000000a0: a4c5 fd3e fa21 8d3f 17cb 9a3f e1cd 02bf
000000b0: 2970 b33f f895 343f 2a64 523f 1891 a83f
000000c0: 9be2 dd3e b0ef a73f 211d f2be 0a82 0dc0
000000d0: f691 10bf a682 6f3e 7e99 e1be 6e6a cfbf
000000e0: bb7c 48bf 7782 4bbf a91f 0f3e 6db7 6e3f
000000f0: 9c59 a03f f8b7 8a3f ffb8 c83f a14f 1ec0
00000100: a9ab fabf 6b38 803f 4411 a83d 9fcb d5bf
00000110: 5001 533f ebd7 03c0 7ca1 8cbf 5c58 8d3f
00000120: 7ee5 b13f 3cec 923e cb90 afbf b2a5 8c3f
00000130: fed4 993f 4c3d 7d3f fde5 933f 93db 8e3f
00000140: f98e 4ec0 cfde 3cbf 4cf9 b2bf b15e e7bf
00000150: 8b69 f0bf d423 11c0 3e04 2e3f 805a 893f
00000160: 6caa 94bf 469d 933f e012 9dbf 4263 8cbf
00000170: 2be3 42bf 12be b73f f06b b13f 6baa 693f
00000180: 0979 b33f 64d5 983f 15d5 bb3f dc12 883f
00000190: 4b33 cdbf 9385 853f 9594 b03f 8246 823f
000001a0: 2e74 9e3f 8322 713f 0714 a93f 290b a43f
000001b0: d3cf 553f 7a39 133d fce8 523d bbb0 433f
000001c0: 71a4 e4bf f7f7 65bf 412a 613f 1e1f a63f
000001d0: e017 1ebf 1bec 693f f11b b7bf 4066 f7bf
000001e0: ebc1 9d3f dc57 283f 64bc 50bf 4059 c1be
000001f0: b1bf e3be f13c 6c3f d267 13c0 fe9e c8bf
0.5291368 -1.7058841 -1.8941792 -1.3296274 1.0632768 -2.7697656 1.2954807 0.56424737
-0.9526751 1.4027965 1.3847319 1.0802335 1.1829079 -1.3942746 1.316432 0.96307725
0.82661587 -0.16187124 1.0570846 -1.0301663 -0.6755424 1.6243184 -0.769847 0.6787008
0.46554723 1.4131248 -0.4478627 0.13323174 -1.2404681 -1.5845867 -0.053700075 1.4011748
1.3007797 1.2568831 0.81868577 1.1813828 1.2484119 -1.2877014 1.1949195 1.3792051
0.4956485 1.1025994 1.2093228 -0.51095396 1.4018604 0.70541334 0.8218409 1.3169279
0.4333695 1.3120022 -0.4728785 -2.211062 -0.5647272 0.23389682 -0.44062418 -1.6204355
-0.78315324 -0.7949595 0.13976921 0.93248636 1.2527347 1.0837393 1.5681456 -2.4736102
-1.9583637 1.0017217 0.08206418 -1.6702765 0.8242388 -2.0600536 -1.0986781 1.104259
1.389816 0.28695858 -1.3716062 1.0988066 1.2018125 0.98921657 1.1554562 1.1160759
-3.2274764 -0.7377748 -1.3982329 -1.8075773 -1.8782209 -2.2678118 0.67975223 1.0730743
-1.1614509 1.1532371 -1.2271385 -1.0967791 -0.7612788 1.435488 1.3861065 0.9127566
1.4021312 1.1940122 1.4674402 1.0630755 -1.6031278 1.0431389 1.3795344 1.0177767
1.2379205 0.94193286 1.3209237 1.2815906 0.8352024 0.035943486 0.051491722 0.76441544
-1.7862684 -0.8983149 0.879551 1.2978246 -0.6175518 0.91375893 -1.4305402 -1.9328079
1.2324804 0.6575906 -0.8153746 -0.37763405 -0.44482186 0.9228049 -2.3032117 -1.567352

dense_layer_2.weight f4 [2, 128]
00000000: 797c 963e 84c0 5ec0 4ddf b6c0 6c3c 7a3d
00000010: b2cd 893e f39d 00c1 690d df3e d12e 1f3f
00000020: 87c7 4dc0 e842 2f3f aec8 673f d8a9 043f
00000030: bd2b df3e bde5 81c0 48d7 343f 4c3a 023f
00000040: cdb8 3f3e c1b4 e73e 3d21 cc3e 3214 46bf
00000050: 834b 53bf f576 5f3f c774 f03e 9df7 f13e
00000060: 0db7 83be ef67 c4bf cb37 f13c e578 323f
00000070: 6a75 28c0 8657 08c1 4a87 9bbf b907 863f
00000080: 220c f73e 0db3 223f 12b1 f73e 7b10 e23e
00000090: 91ac dc3e 92e2 37c0 2e4b 623f 5917 353f
000000a0: 38c6 4ebf 5014 d53e a606 0cc0 cdb5 8b3f
000000b0: fcfc 123f 7b4a 163e 2bca 063f 588d bf3e
000000c0: f050 cb3e 7e72 d93e 38da 513f eed9 83c0
000000d0: 4826 3b40 53ec 1d3d d4aa 8d3c f8dc e0bf
000000e0: 4781 8640 b591 c63e 8a6d febe c4be 1cc0
000000f0: 489c 70be c343 ff3e 0c32 1e3f cf7f 14c1
00000100: cbb6 68c0 e739 1c3f 3629 4cbe 0e51 8cbf
00000110: 83bb 013f dd86 81c0 7649 0dc0 21bc 1e3f
00000120: 5779 733f 2fee 1c3f a878 f5c0 4fdb 00bf
00000130: 0188 173f 961d f23e c44f dd3e 7af4 8e3e
00000140: 3841 99c0 b019 393f debd ecbe d2ab 89c0
00000150: 25ec 2ac0 8455 9cc0 d2c5 363f a085 023f
00000160: 5ea6 63bf 1255 c13e 10bc 8340 76bc aebf
00000170: 3f34 803f 09b1 0cc0 efe2 0fc0 5461 113f
00000180: 4244 2f3f d39e a43e f0e3 433f c1e4 87be
00000190: d5dd 11c0 c2ef 0d3f 036e 4e3f e0f6 2f3f
000001a0: be8c 173f 1e8b bb3e 1cde 85be b9df b13e
000001b0: 518d 7fbf ed82 453f 3163 913c 0145 d3bd
000001c0: e9de 51c0 4686 1040 0fed 873e 5f92 173f
000001d0: edc1 b6bb 87ad 5b3e a794 62c0 70cf a1c0
000001e0: e825 403f b935 1a3f a4f7 84c0 38df 31bf
000001f0: ed59 01bf e410 283e 1558 6dc0 be27 94be
00000200: 6e4d 003f ad11 1dc0 1033 96c0 baa8 bfbf
00000210: 1f03 0a3f 9d25 f8c0 6733 2d3f cbaf ca3d
00000220: 4927 13c0 5f97 223f 97ce 873f a184 c13e
00000230: c7d6 4d3f 5128 29c0 4dd6 103f 69a2 f73e
00000240: 768d 3b3f 5aaa bd3e c080 1d3f 0ae1 adbf
00000250: 16e6 693e ec4a 273f 4df2 55c0 6ece 9e3e
00000260: 3523 0b3f a053 22c0 a7f7 5bbf 0926 223f
00000270: e43e 59c0 9dda d1c0 c194 bfbf 90a2 483f
00000280: 0734 043f 843f 353f 6705 1e3e 27ac 1a3f
00000290: 0b40 253f 7800 92c0 2d2b 033f 133f 123f
000002a0: 0993 b6be ea85 403f 2ae8 bfbe 41f3 103f
000002b0: 7a7b 163f 2b22 603f 273e 0c3f 7eda 303f
000002c0: 099d c73e ce14 433f 286f 583f 3f85 84c0
000002d0: ca00 2b40 9d2e 623f b4bc 4dbd 02e6 66c0
000002e0: 00d9 5340 26c1 4dbf 6718 e0be accf 1fbe
000002f0: 0526 50bf 89f6 3a3f 020f 303f 32cf 06c1
00000300: cfaf 22c0 cbac 423e 1f60 b4be a394 fc3e
00000310: 2a28 b63e be6e 4cc0 2d40 bac0 b432 f93e
00000320: 02b7 1d3f 4ff0 a53d 661c 24c1 a944 9bbf
00000330: 6c39 313f e6f2 2b3f f6a0 2e3f 1823 073f
00000340: 5b95 74c0 2e5b c53d e0a2 10bf b8a6 81c0
00000350: bab0 0bc0 53f4 a7c0 12c2 2b3e 18f3 5f3f
00000360: 6f57 05bf d793 453f 9d7e ff3f 5275 66bf
00000370: cb07 813f bd7f 14c0 087d 57bf 97b4 0c3f
00000380: 1223 1e3f df48 233f 2ccd 083f 7aa9 a1bf
00000390: 415a d4bf a470 693e 17e9 2f3f 83df 103f
000003a0: 7dbe 333f 5ee9 0ec0 17a3 08c0 bfab 1b3f
000003b0: 7c7e 16bf d854 623f 9543 f43e bd65 10c0
000003c0: 2334 3fc0 1f98 913f c1f7 cd3e 3427 173f
000003d0: 73c6 bcbc cbd2 f43e 0c0f 59c0 429d d0c0
000003e0: 74a8 443f 9162 cf3e ef40 4ebd 8106 50bf
000003f0: 8edf c2be 2de8 673f 858f f4bf 2cbc eb3f
0.2939184 -3.4805002 -5.7147584 0.06109278 0.26914746 -8.038562 0.4356492 0.6218081
-3.2153032 0.68461466 0.9054059 0.5182166 0.43588057 -4.059294 0.70640993 0.50870204
0.1872284 0.45255092 0.3986911 -0.77374566 -0.82537097 0.8729089 0.46964094 0.47259226
-0.25725594 -1.5344218 0.02944555 0.6971572 -2.6321664 -8.521368 -1.2150662 1.0471107
0.48251444 0.6355446 0.4837728 0.441532 0.43100408 -2.8732038 0.88395965 0.7073875
-0.8077121 0.4161706 -2.1879058 1.0914856 0.57417274 0.1467685 0.52652234 0.37412524
0.39710188 0.42470163 0.819736 -4.1203527 2.9242115 0.038555454 0.017293371 -1.7567434
4.203281 0.3878304 -0.49692947 -2.4491434 -0.23497117 0.49856386 0.61795115 -9.281203
-3.6361568 0.6102585 -0.19937596 -1.0962236 0.50676745 -4.047713 -2.2076087 0.6200581
0.95107025 0.6130094 -7.6709785 -0.5033464 0.591919 0.47288197 0.4322492 0.27920896
-4.7892113 0.7230482 -0.46238607 -4.302224 -2.670663 -4.885439 0.713956 0.50985146
-0.8892573 0.37760216 4.116707 -1.3651264 1.0015944 -2.1983054 -2.248226 0.56789136
0.6846353 0.32152423 0.7651968 -0.26541713 -2.2791646 0.55443966 0.80636615 0.68736076
0.5919913 0.36629575 -0.26146019 0.34741 -0.99825007 0.771529 0.017747493 -0.10315896
-3.2792304 2.2581954 0.2654805 0.5920772 -0.005577317 0.21452914 -3.540323 -5.056572
0.7505784 0.60238224 -4.1552296 -0.6948123 -0.5052784 0.16412693 -3.708501 -0.2893657
0.5011815 -2.4542038 -4.693733 -1.4973366 0.5391101 -7.7545915 0.6765656 0.09896811
-2.2992728 0.63512224 1.0609921 0.377965 0.8040585 -2.6430857 0.56577 0.48366097
0.7326273 0.3704403 0.6152458 -1.3584301 0.22841677 0.65348697 -3.3429139 0.31016868
0.54350597 -2.536354 -0.8592476 0.6333929 -3.3944635 -6.557936 -1.4967271 0.7837305
0.5164189 0.7080004 0.15431748 0.60418934 0.64550847 -4.562557 0.51237756 0.57127494
-0.35659054 0.75204337 -0.37481815 0.56621176 0.5878216 0.87552136 0.54782337 0.6908339
0.38986996 0.7620362 0.8454461 -4.1412654 2.6719232 0.88352376 -0.05022879 -3.6077886
3.3101196 -0.80372846 -0.43768618 -0.15606564 -0.81308013 0.7303243 0.687729 -8.425585
-2.5419805 0.19011228 -0.35229585 0.4933215 0.35577518 -3.1942592 -5.820334 0.48671496
0.6160737 0.08102476 -10.256933 -1.2130328 0.69228244 0.6716751 0.68214357 0.52787924
-3.821616 0.09636532 -0.5649853 -4.0516014 -2.1826615 -5.2485747 0.1677325 0.87480307
-0.5208654 0.7717871 1.9960514 -0.90022767 1.0080503 -2.3202965 -0.8417516 0.5496306
0.61772263 0.6378307 0.5343807 -1.2629845 -1.6590043 0.22796875 0.6871504 0.5659105
0.7021254 -2.2329936 -2.1349542 0.6080894 -0.5878675 0.8841071 0.4770781 -2.2562096
-2.9875572 1.1374549 0.40228084 0.59044194 -0.023043847 0.47817072 -3.3915434 -6.5191965
0.7681954 0.40504888 -0.050354894 -0.81259924 -0.38061184 0.9058865 -1.9106299 1.84168

dense_layer_2.bias f4 [2]
00000000: 7540 033f df4e 393f
0.5127023 0.7238597

exp_avg f4 [128, 4]
00000000: de8b 9a3b f1e9 4d3b b3f5 62ba 4b0b b0bb
00000010: 87ea a3bb 1d32 86bb 3018 9839 bae7 b2b8
00000020: 7005 2d3a 211d 0cba eca3 9237 349e 8f3b
00000030: 0400 0000 0400 0000 0400 0000 0400 0000
00000040: 0941 0f3b 3aa4 c53b 6478 afba 6b9f 0cbc
00000050: e571 e1bb 82b8 06bb 24a3 d538 10ba d139
00000060: 8cf6 f53a 0c0e f53b 1d4d e8ba 0d56 39bc
00000070: 32d3 c03a 2ccd 613a 323f c4ba 79d7 cbbb
00000080: 2571 2ebc 249f cdbb 4320 f53a 761a 773c
00000090: 32f4 2f3b 5441 ee3b 589e 69ba 5897 3cbc
000000a0: 7cc9 873a a05f 3d3c 9a8c 43bb 77ff 9abc
000000b0: a858 afba 9da8 813b 52aa a3ba a209 00bc
000000c0: b0ef 413b b6c4 123c a5f7 04bb bfe9 54bc
000000d0: 6ea8 9e3b ac83 9d3b 1911 d13a 4ef5 303b
000000e0: f5fa a0ba 6a6a c83b 959d eeba 0aff 3cbc
000000f0: 04eb bdb9 b907 aa3b 6b85 beba eb32 16bc
00000100: 396e 933b df4d 083c 9889 d8ba 674e 2fbc
00000110: 2223 30bb 9251 3c3b 6131 59ba ffe7 75bb
00000120: e460 e13a 8b2f df3b b5b4 d3ba cde4 28bc
00000130: 5396 033b 54e9 9d3b f046 2e3b dc9f ac3b
00000140: 044f d93b 90ae 86bb 9553 3c3a 9593 643b
00000150: 2409 fbba 6cea e53b f445 0dbb 1654 5fbc
00000160: 711d d8bc a154 68bd efd0 5bbb 7877 f13c
00000170: 1227 b73a bcb1 923a df0a 19ba 006e 53bb
00000180: ec56 8c3b 4a17 2c3c c850 01ba 8064 b8bb
00000190: 0b69 1bbc d19c dfbc 227c de3b 843c 1d3d
000001a0: b8ff 0ebc a2eb 18bc f04c b039 c655 cd3b
000001b0: ef17 c2bb 9d21 a33b 4e78 b9ba 5342 b0bb
000001c0: de86 033d 7417 2c3c 1e2a cf3b ddf5 f43b
000001d0: d5c2 e53c ca48 863d 3916 d1ba 236f edbc
000001e0: 3c4f 3dbc 41dc 5abc 7ea7 f8b8 fce5 193c
000001f0: 4a66 17bb 7ec1 093c d868 29bb cbe6 85bc
00000200: e0f0 1c39 3f6f b73b efcf c3ba edd4 1abc
00000210: 68b3 df39 b346 fc3b e8a0 04bb f4f9 51bc
00000220: fcfe 5bbb 65d8 b63a 2650 52ba d3fd 9bbb
00000230: 6844 a13a 5972 d93b 330b d6ba 7452 2abc
00000240: 708f d93a 0eaf e93b e64f dfba 30f8 31bc
00000250: 70ce b1bb 5519 c8bc 52bc 48ba 86e4 c63c
00000260: 6d92 53bb 290a af3b 3453 f6ba e511 41bc
00000270: d77b 9fba de0d c23b 6262 f1ba 8e89 38bc
00000280: 64d9 643a 9564 893a a429 5a39 4ffe 5b3b
00000290: 8037 313b c760 093c 5e9e f9ba c1b4 47bc
000002a0: 03f2 423c 4c1c 66bc 4426 613b 55e4 aa3c
000002b0: 2b4c 7e3b 842b 60bb 7b5e dbb9 f61f 70bb
000002c0: a008 82b8 49fa cf3b 4c15 e2ba 979d 32bc
000002d0: 5bc2 cd3b 1f52 253c 2363 faba 7c79 4ebc
000002e0: fa1a 9c3b 3256 773b 4ad3 68ba ebf5 c3bb
000002f0: fe3a 253b d106 fc3b 9463 e4ba 26d7 36bc
00000300: 9c55 df3a af47 453b dc92 14ba 731f a7bb
00000310: 6a6d 2f3b d2d1 0a3c 5917 fdba 577b 4abc
00000320: 52c8 b6bb 884b 123b 1899 dfba 71dd 8dbb
00000330: 0400 0000 0400 0000 0400 0080 0400 0080
00000340: be82 983c 1908 25bb 90ad 95b9 209d 95bc
00000350: 65a9 12bb 1d73 5b3b 8880 88ba 753d 82bb
00000360: 0000 0000 0000 0000 0000 0000 0000 0000
00000370: b5d2 d338 3fa3 8738 d81d 0eb7 942d 80b8
00000380: b255 8c3c 9e11 203c cc51 e2b9 0913 c6bc
00000390: 0dfa b0bb e27c f63b fc02 433a c3e0 7cba
000003a0: bc50 12bb 1455 58bb 3861 9039 07e8 cb3b
000003b0: 62ce b93c ea8b 16bc c0d6 0f3b 00be 613c
000003c0: 2a48 00bc 52c2 29bc 4c77 f83a 0a00 3e3c
000003d0: ee77 2e3b 47dc ff3b be9c 00bb 8213 42bc
000003e0: 0090 d839 1b03 f53b 0ae6 00bb b619 4cbc
000003f0: 0400 0000 0400 0000 0400 0080 0400 0080
0.0047163805 0.0031419958 -0.0008657828 -0.00537244 -0.005002323 -0.0040953294 0.0002900972 -8.530864e-05
0.00066002365 -0.0005344917 1.7480888e-05 0.004382873 6e-45 6e-45 6e-45 6e-45
0.0021858832 0.00603154 -0.001338732 -0.00858293 -0.0068800324 -0.0020556753 0.00010187019 0.00040002214
0.0018765493 0.007478481 -0.0017723177 -0.01131202 0.0014711379 0.0008613642 -0.0014972447 -0.0062207547
-0.010647093 -0.0062750746 0.0018701631 0.015081992 0.0026848433 0.0072709713 -0.00089118397 -0.011510693
0.001035973 0.011558443 -0.0029838444 -0.018920643 -0.0013377862 0.003956868 -0.0012486672 -0.007814797
0.0029592328 0.008958032 -0.002028921 -0.012995183 0.0048418557 0.0048069563 0.001595053 0.0027001682
-0.0012281822 0.006116201 -0.0018204922 -0.011535415 -0.0003622399 0.005188909 -0.0014535611 -0.009167413
0.0044992235 0.008319347 -0.0016520498 -0.010699845 -0.002687641 0.0028735143 -0.0008285251 -0.0037522314
0.0017195013 0.0068110875 -0.0016151877 -0.010308457 0.0020078614 0.0048190746 0.0026592575 0.00526808
0.006631734 -0.004110165 0.00071840856 0.0034878005 -0.0019152504 0.0070164707 -0.0021556588 -0.0136308875
-0.026381226 -0.056721333 -0.0033541282 0.029475912 0.0013973436 0.0011191885 -0.0005838107 -0.003226161
0.004282823 0.010503599 -0.0004932997 -0.005627215 -0.009485493 -0.027296456 0.0067897 0.03838779
-0.00872796 -0.009333523 0.0003362666 0.0062663285 -0.0059232633 0.0049783722 -0.0014150233 -0.005379
0.03211104 0.010503639 0.0063221594 0.0074755982 0.028047005 0.06556852 -0.0015952057 -0.028983658
-0.0115545355 -0.013358177 -0.000118567594 0.009393211 -0.002310174 0.008407949 -0.0025849845 -0.016345402
0.00014967052 0.0055979784 -0.0014939288 -0.0094501795 0.00042667543 0.0076988577 -0.002023751 -0.012815941
-0.003356873 0.0013949989 -0.00080228073 -0.004760483 0.0012303712 0.0066359458 -0.0016330242 -0.010395635
0.0016598534 0.007131464 -0.0017037361 -0.010862395 -0.0054262206 -0.024426142 -0.00076574564 0.02427889
-0.0032283321 0.0053417874 -0.0018793107 -0.011784052 -0.0012167644 0.0059220633 -0.0018416161 -0.011263264
0.00087299035 0.0010482246 0.00020805612 0.0033568328 0.0027041137 0.00838489 -0.001904439 -0.012189091
0.01189852 -0.014044832 0.0034355083 0.02086083 0.0038802724 -0.0034205625 -0.00041841328 -0.0036640144
-6.2004896e-05 0.006346975 -0.0017248779 -0.01090183 0.0062792725 0.01009038 -0.0019103031 -0.012602206
0.004763958 0.0037740585 -0.0008881582 -0.0059802434 0.0025212164 0.0076912423 -0.0017424696 -0.011159694
0.0017039063 0.0030102541 -0.00056676357 -0.0051001846 0.0026768097 0.008472877 -0.0019309326 -0.012358508
-0.0055780793 0.0022322852 -0.0017059175 -0.0043293764 6e-45 6e-45 -6e-45 -6e-45
0.01861703 -0.0025181829 -0.0002854881 -0.0182634 -0.00223788 0.003348536 -0.0010414282 -0.0039746114
0.0 0.0 0.0 0.0 0.00010100511 6.4677086e-05 -8.470808e-06 -6.112005e-05
0.017130706 0.009769825 -0.00043167023 -0.024178999 -0.005400902 0.0075222114 0.00074391044 -0.0009646529
-0.0022325953 -0.0033009695 0.00027538254 0.006222728 0.022681419 -0.009188632 0.002194807 0.01377821
-0.007829705 -0.010361271 0.0018956452 0.011596689 0.0026621777 0.0078082415 -0.0019624676 -0.011845471
0.0004130602 0.007477177 -0.0019668364 -0.012457302 6e-45 6e-45 -6e-45 -6e-45

exp_avg_sq f4 [128, 4]
00000000: fb7b 1f3b 45d0 823a 515e bf37 fb38 263a
00000010: 7127 163b 3b86 c73a 207e 0037 127b fb38
00000020: 2c5e d737 a634 9d38 e0a0 d134 e3a3 8e39
00000030: 2b4d 6134 58c3 1635 2c87 e130 6036 8632
00000040: 24ce 853b b3f2 013b e874 1e38 996f b13a
00000050: c12f 453d 11f4 563c 0f6f 8039 19ca ab3a
00000060: 0eb6 df3b c912 6a3b 896b 8a38 ddc1 133b
00000070: 6161 033b 882d 143b ff01 0a38 d5d6 053a
00000080: 3ead 453c 0beb bd3b 4b2f 1339 dff5 383c
00000090: 2e1a de3b 8259 8c3b cbc5 a838 c212 1b3b
000000a0: aca6 9b3c 3f6f 343c 7911 4d39 8e83 ca3b
000000b0: 61de 613b 2870 203b 3271 2938 bd62 8c3a
000000c0: ab43 163c 66e6 943b 61fc b338 0d3f 473b
000000d0: ee99 1d3d 1a92 f03b 3cae 7939 b2bd e83a
000000e0: be6a df3b 3604 9a3b ead9 a138 4a23 023b
000000f0: 40b7 923b abd4 393b df4e 4c38 55ef bb3a
00000100: a858 e33b ef81 473b 1e94 7d38 9ed7 163b
00000110: 87b2 af3a e3d6 a33a 187d a537 2e8e b739
00000120: d358 b13b 40cf 3a3b fa9f 5538 cdd4 cc3a
00000130: 7b82 fc3b 37f8 593b d082 8738 8341 7a3b
00000140: 25c0 523b af68 8b3a 7c30 8a37 7dde c739
00000150: 2095 1b3c b4b1 df3b e159 e338 7482 283b
00000160: b0b4 033d 42d4 943c 68c6 2e39 3b60 4f3c
00000170: f1b3 b33a 3f6c 7a3a f5d4 9a37 21f8 023a
00000180: ae1b 413b 7c99 b43a f963 f637 eae8 2d3a
00000190: 86e7 aa3d 8aa6 1b3d c4da 053a 6cd8 6f3c
000001a0: e388 c23b a570 a93a 75c1 c037 e38e 043a
000001b0: ee25 473b 1dd8 403b 7ad3 4f38 1ca5 ae3a
000001c0: 7067 283d 6f94 3b3d 8449 023a 3d6b 5a3b
000001d0: 6385 c53d a89c 743d d067 0d3b 1f2b 8a3d
000001e0: beaf be3c 9f92 5b3c 0be9 4539 4c7e a13b
000001f0: 12cb 683c 82d7 233c 5bdf 2d39 4ad6 903b
00000200: bce3 9a3b ff5b 3a3b b1d4 5038 444f c83a
00000210: 8292 0d3c 529d a83b 29a6 bd38 efe6 373b
00000220: a7c3 d53a d25b cf3a 167e c537 62f2 fa39
00000230: 8e62 ba3b 4427 4b3b 4759 6c38 37f3 f43a
00000240: 53de cf3b 4c92 5c3b c3c3 8138 b3ef 083b
00000250: 3aff 053e 0565 833c 3ad7 a939 bec5 133c
00000260: b76d fe3b 2b67 ca3b a65e c838 6301 093b
00000270: bd0f e63b 4ebd 9c3b 3893 a838 1cb9 103b
00000280: 9c9b 2a3b 2a8a 9d3a e663 e737 f262 823a
00000290: 1ad4 043c b091 843b 89d5 9f38 23e4 2f3b
000002a0: e6fd 6c3c c778 0b3c cf07 b638 0888 733b
000002b0: feca ae3b 6eb6 373b c1d8 7138 a606 be3a
000002c0: f929 cd3b 125b 7d3b c491 8c38 b16c 043b
000002d0: acc9 113c bbd5 763b 0cb0 9138 da60 ef3a
000002e0: 6bdb 583b de5c e13a 8ffe 1738 59c8 813a
000002f0: 68a9 de3b 2a6d 5d3b beae 8538 d7ab 133b
00000300: ce58 df3a ca07 833a 8d10 a837 14d6 063a
00000310: daa2 093c 5b95 893b edd5 a538 f60f 363b
00000320: c549 963b 8736 5d3b c9a3 5138 e3fa e23a
00000330: 2e98 ec2b d382 6c2a bd7b 7225 89ff 8829
00000340: 5515 a23c d31f 253c 1bb5 9f39 eb4e 843c
00000350: e20f 423b a370 0a3b a3f7 6938 496f 0c3b
00000360: 0000 0000 0000 0000 0000 0000 0000 0000
00000370: 8afc 9c3a 5814 9239 74d2 2f37 9699 6139
00000380: 9248 973c 3c1d 433c 900a 9239 4cbd bb3c
00000390: aefd 5e3b 8f5f ae3a 81a3 bd37 6379 aa3a
000003a0: 5762 123b a227 713a 1604 c237 ad9c 2e3a
000003b0: 5840 143d 647a 1e3d 8af6 133a 28f9 1a3c
000003c0: 5061 053c 7068 6d3b 7d76 9c38 65c9 3b3b
000003d0: 78cf 033c 489e 8c3b a59f a538 61fa 2e3b
000003e0: a43d 053c 4685 9e3b ca57 b238 4f16 2d3b
000003f0: 4d01 9239 a91f 6138 a4b9 c535 89ab 3038
0.0024335373 0.0009980282 2.2812894e-05 0.0006340888 0.0022911693 0.0015222499 7.65876e-06 0.00011991536
2.567385e-05 7.49615e-05 3.9046336e-07 0.00027206456 2.0982831e-07 5.6163617e-07 1.6409323e-09 1.562438e-08
0.004083412 0.0019828498 3.7779013e-05 0.0013537287 0.048141245 0.013119713 0.00024496808 0.0013106494
0.0068271225 0.0035716763 6.600383e-05 0.0022545971 0.0020047056 0.0022610147 3.2903623e-05 0.000510556
0.01206523 0.0057958416 0.0001403663 0.011289089 0.006778023 0.004283131 8.047706e-05 0.0023662304
0.019000374 0.011012851 0.00019556833 0.0061802333 0.0034464824 0.0024480913 4.039816e-05 0.0010710579
0.009171407 0.004544067 8.5823944e-05 0.0030402571 0.038476877 0.0073416354 0.00023811398 0.0017756729
0.0068181446 0.004700209 7.717668e-05 0.001985746 0.0044774115 0.002835552 4.8710845e-05 0.0014338294
0.006938059 0.0030442437 6.0457845e-05 0.0023016701 0.0013404646 0.0012499954 1.9727784e-05 0.00035010412
0.0054122 0.0028504878 5.0932147e-05 0.0015627384 0.007705984 0.003325952 6.461667e-05 0.003818602
0.0032157984 0.0010636057 1.647346e-05 0.00038122004 0.009496003 0.006826604 0.00010840945 0.0025712522
0.03215474 0.018167619 0.00016667845 0.0126572205 0.0013710243 0.0009552873 1.8457396e-05 0.00049960805
0.0029465961 0.0013778652 2.9372039e-05 0.0006634133 0.08344941 0.03800062 0.0005106146 0.014639001
0.0059367283 0.0012927247 2.2978269e-05 0.0005056692 0.0030387598 0.0029425689 4.95496e-05 0.0013324353
0.04111427 0.045795854 0.0004970061 0.003332808 0.09644582 0.05971971 0.002157677 0.06746506
0.02327716 0.013401656 0.000188742 0.004928386 0.014208572 0.010000112 0.00016581772 0.0044200765
0.004726855 0.0028436182 4.978915e-05 0.0015282412 0.008640887 0.005145707 9.043172e-05 0.002806123
0.0016308919 0.0015820211 2.3542943e-05 0.00047864305 0.005688018 0.0030998746 5.634993e-05 0.0018688206
0.006343642 0.0033656536 6.187663e-05 0.0020894825 0.13085642 0.01603938 0.00032394548 0.009019313
0.007764544 0.0061768494 9.554373e-05 0.0020905368 0.007020919 0.004783309 8.038286e-05 0.002208299
0.0026032692 0.0012019326 2.7583865e-05 0.0009947701 0.00810721 0.0040456876 7.621485e-05 0.002683886
0.014464831 0.008512682 8.679891e-05 0.0037159938 0.005334257 0.002803232 5.7660745e-05 0.0014497831
0.006261107 0.0038659018 6.702871e-05 0.0020206387 0.00889818 0.0037664014 6.94693e-05 0.0018263117
0.0033089768 0.0017193814 3.623828e-05 0.0009901627 0.006795097 0.003378699 6.3744825e-05 0.0022532844
0.0017040016 0.0009996828 2.0034868e-05 0.00051435945 0.008400643 0.0041987128 7.90766e-05 0.002778051
0.0045864307 0.0033754425 4.998202e-05 0.0017317202 1.6811047e-12 2.10064e-13 2.1032078e-16 6.0839415e-14
0.019785563 0.010078388 0.00030461777 0.016150912 0.0029611518 0.0021124266 5.578216e-05 0.0021428636
0.0 0.0 0.0 0.0 0.0011977118 0.00027862447 1.0479813e-05 0.00021514887
0.018467221 0.0119088255 0.0002785516 0.022917412 0.0034025717 0.0013303625 2.2606693e-05 0.0013006147
0.0022336447 0.0009199326 2.3128505e-05 0.000666092 0.036194175 0.03869094 0.0005644342 0.009458818
0.008140877 0.003622558 7.46073e-05 0.0028653976 0.00804507 0.0042913295 7.897549e-05 0.002669953
0.008132372 0.004837665 8.5040534e-05 0.0026411002 0.0002784826 5.3673666e-05 1.4731672e-06 4.2121424e-05

exp_avg f4 [128]
00000000: 485d 4e39 4369 323b 4e79 1e3b 0400 0000
00000010: 7afe c3b9 aeba 4b3b 943b ddb9 2c64 603b
00000020: 64a0 053c bcdf 07ba e8b8 17ba a04e b0b8
00000030: bcdd 11ba 4acd edba a089 8eb9 b043 4bb9
00000040: cee9 1fba a69b 8cba 40b1 cbb9 c002 79b8
00000050: 68ec 2aba 0020 98b9 f430 45bb e189 2f3a
00000060: 944c d6ba 40fc 903a 3c42 80bb 2358 96bb
00000070: 786b b1bc a1f7 d43c 5a43 95bb 207b b8b9
00000080: 401c 7eb9 50e7 b6b9 9825 b439 38af b7b9
00000090: 541c cfb9 104c 09bb 60f5 f5b8 f043 29b9
000000a0: 86ce 84bb c8d8 06ba 5a5a e1bb 9f2e 683b
000000b0: f011 87b9 5ee9 6aba 40e2 3aba fc04 f5b9
000000c0: 167b 9a3a 8eaa 08ba 00e9 19b8 0400 0000
000000d0: 9764 adbc b452 cabb 0000 0000 d18a 5038
000000e0: a685 2fbc 20bd 4db9 6fee 09bb ee3c 00bc
000000f0: f509 0c3b 72ec 5eba 90af b1b9 0400 0000
00000100: 0400 0000 001d 1e39 06df 273a 816b ca3a
00000110: 5ca4 23b9 5ec5 0abd 5209 ec3b b371 a03a
00000120: 605f 56b9 9868 853b 0725 0a3d 01fc 46bb
00000130: 301b 03ba 8adf 853a 4819 833a bad9 b9b9
00000140: 9c17 84b9 94e0 5a3b d8f3 963a 2cf5 1cbd
00000150: 0400 0000 0400 0000 18d2 18bb 06ac 9d3a
00000160: 043a ca39 bad8 11ba 919e 86ba ae6a aaba
00000170: ce7c 433b 8418 0cbc ec4f e23a d4bd 1d3a
00000180: 00bd 78b9 4262 e9b9 a07c eab8 ddb5 b0bb
00000190: 0400 0000 a064 fb38 7009 7eb9 361e bf3a
000001a0: f824 c0b9 5735 093c 64d9 20bb 1c11 d2b9
000001b0: 9110 163b 0cdd 60bb f33c a43b 02b9 df3b
000001c0: f3dc 81bc f682 88bb c87b 72b9 c8b9 85b9
000001d0: 0400 0000 2aa0 b0b9 83dc 4ebc 0400 0000
000001e0: 08ba bcb9 83f1 25bb b4be 0d3c a004 edba
000001f0: 9a73 6cbb 358e 51ba 0400 0000 0400 0000
0.00019680441 0.0027223385 0.002418119 6e-45 -0.00037382898 0.0031086612 -0.00042196794 0.0034239395
0.008155916 -0.00051831803 -0.0005787746 -8.406979e-05 -0.0005564352 -0.0018142846 -0.0002718689 -0.00019384804
-0.0006100208 -0.0010727539 -0.0003885124 -5.9368787e-05 -0.00065202126 -0.0002901554 -0.0030088993 0.0006696266
-0.0016349726 0.0011061504 -0.0039141458 -0.0045881434 -0.02165769 0.025996985 -0.004555148 -0.0003518695
-0.00024233852 -0.00034886086 0.00034360285 -0.00035035028 -0.00039503223 -0.0020949878 -0.00011728215 -0.00016142405
-0.00405294 -0.0005143997 -0.006877226 0.003542818 -0.0002576257 -0.0008961166 -0.0007129051 -0.00046733755
0.001178595 -0.0005213403 -3.669504e-05 6e-45 -0.021166129 -0.0061744098 0.0 4.9720347e-05
-0.010713017 -0.00019620778 -0.0021046659 -0.007827027 0.002136824 -0.0008503861 -0.00033890875 6e-45
6e-45 0.00015078858 0.00064037775 0.0015443416 -0.0001560612 -0.03387963 0.0072032595 0.0012240916
-0.0002044416 0.0040713064 0.03372672 -0.0030362608 -0.00050013047 0.0010213715 0.0010002041 -0.0003544817
-0.00025194592 0.003339802 0.0011516763 -0.03831975 6e-45 6e-45 -0.0023318585 0.0012029416
0.00038571667 -0.0005563606 -0.0010270645 -0.0013001764 0.0029829028 -0.008550767 0.001726625 0.00060173613
-0.00023721531 -0.0004451443 -0.00011181203 -0.0053927735 6e-45 0.000119873555 -0.00024226843 0.0014581147
-0.00036648638 0.008374534 -0.0024543637 -0.0004006707 0.0022898058 -0.0034311442 0.0050121485 0.0068274746
-0.015852427 -0.0041660024 -0.0002312503 -0.00025506155 6e-45 -0.00033688667 -0.012625816 6e-45
-0.00035996758 -0.0025320954 0.008651424 -0.0018083043 -0.0036079646 -0.0007993908 6e-45 6e-45

exp_avg_sq f4 [128]
00000000: c7db a13a 9793 153a 77c4 1d39 a5f5 9034
00000010: 379e fd3a 2cc4 0c3c 817a 503b 9beb c93a
00000020: e781 ca3b 1910 633b 4280 113c d29e e53a
00000030: e663 8d3b 5881 f33b 5520 5f3b dc82 0c3b
00000040: d8a4 663b a8db 2b3a 81fd 253b 0e42 353b
00000050: 8aa7 823a 777b 9f3b 10f4 6d3c 79a2 6e3a
00000060: 1ed6 023b 5ead 083d 755f d73a 38ad f53a
00000070: 5ca1 8b3c 52fe 8b3d 8244 293c 266c eb3b
00000080: 07ec 113b fe18 853b 85c1 933a 0438 2d3b
00000090: 4197 413b a23b d33c 9a21 8d3b 3c07 653b
000000a0: 94f4 e73a 1a9f 793b 4c81 693c df0f 323b
000000b0: 97ca 423b 34c6 9c3b 4d23 ee3a 8295 513b
000000c0: f666 7c3a 2d48 813b 5a9e f73a 2002 c62a
000000d0: 8e59 343c 132a 253b 0000 0000 08a0 9039
000000e0: 453c 383c 8e31 ab3a 7213 963a 54fb e83c
000000f0: 2ea5 8a3b 4fd3 763b 8969 7a3b 4e0c 7938
00000100: 5e55 f222 5e2e f13a 9850 1a3a 6828 773a
00000110: e1cc 953a 9d34 423c 9ca5 243d 7c0e 0d3b
00000120: 2590 ac3b c283 b13a 1dd5 923d da25 0c3c
00000130: 91c4 773b e14c 523b 6cef 513b fa99 f23a
00000140: 0750 8b3b e9d3 403a ad41 0f3a 3ace 8a3c
00000150: b241 e52c 5afa df35 4e43 d93a 59bd a93b
00000160: 52fa 523a 994a 813b fd1a b939 995a 9a3b
00000170: 8e8e 153b d7e5 143d 081d 683c 8389 2f3b
00000180: 25dc 6e3b 8033 303b 9312 6f3b 8da2 013c
00000190: 3130 1829 a04b c63a f5aa 9c3b 9f2a 253b
000001a0: f718 7b3b 34f0 f83c aa01 c03c 7c82 253b
000001b0: 5a8c 273b baa5 253b b227 463a 8922 d53c
000001c0: ecda 163c f0e1 f03a e632 943a acce 473b
000001d0: 2ef5 982e 4aab c33a 81ed 8f3c f585 ee23
000001e0: ae5a a73b be0b c83a d03a 373b 3a2b 383b
000001f0: af03 483a bec3 b33b dc3c 5e2a f401 0000
0.0012348824 0.00057058915 0.00015045876 2.700082e-07 0.001934952 0.008591693 0.00318113 0.0015405299
0.0061800363 0.0034647046 0.008880677 0.0017518646 0.0043148873 0.0074311905 0.003404637 0.0021440303
0.003519347 0.00065558637 0.0025328102 0.002765778 0.0009968143 0.004867013 0.014523521 0.000910319
0.001996405 0.03336846 0.0016431647 0.001874364 0.017044716 0.06835617 0.010331275 0.007184523
0.0022265927 0.004061817 0.0011272883 0.0026431093 0.0029539617 0.025785271 0.004306984 0.003494694
0.0017696791 0.0038089217 0.014252018 0.0027170104 0.0029722804 0.00478437 0.001816848 0.0031979983
0.00096283795 0.0039453716 0.0018891797 3.517334e-13 0.01100768 0.002520208 0.0 0.00027585053
0.011244838 0.0013061033 0.0011449887 0.028440155 0.0042311167 0.003766257 0.0038209877 5.9377686e-05
6.5684617e-18 0.0018400659 0.0005886643 0.0009428323 0.0011428857 0.011853364 0.040197 0.0021523526
0.005266207 0.0013543295 0.071695544 0.008553946 0.0037806372 0.003208928 0.0032033576 0.0018509023
0.0042514834 0.0007355796 0.00054648035 0.01694404 6.515865e-12 1.6687657e-06 0.0016575844 0.0051800427
0.0008048165 0.0039456603 0.00035306058 0.004710507 0.0022820565 0.036352005 0.014167078 0.0026784844
0.0036447134 0.0026886165 0.0036479577 0.00791229 3.379258e-14 0.0015128739 0.004781122 0.0025202406
0.003831444 0.030387975 0.023438293 0.0025254777 0.0025565834 0.0025275783 0.00075590156 0.026017444
0.0092074685 0.0018377881 0.0011306673 0.0030488176 6.9557124e-11 0.0014928367 0.017569305 2.5860745e-17
0.0051072454 0.0015262289 0.002795864 0.0028101937 0.00076299434 0.005485981 1.9738676e-13 7e-43

exp_avg f4 [2, 128]
00000000: ef1d 40bb 1a2c 10b6 1b42 de00 0400 0000
00000010: 0c80 203a 4806 a636 1eb6 8d3b d0f7 263b
00000020: 7ab1 26bb 15df aeba 78f5 41ba 5020 15ba
00000030: 06dc 433b 4c3c d8b5 3868 513a 90f7 723a
00000040: 02e1 9a3b 529f 363b f060 7b3a 04cc 1f3c
00000050: 39af 3e3c 68fa 323a 5457 0abb 9a90 53bb
00000060: 8e94 5abb 516d 2a3c cc15 e3b9 ee3b b33b
00000070: 8945 d93b 23e3 0e3a 3def 95bb e4d8 fd3a
00000080: a012 d4b9 7e30 453b 66f5 2cbb 7092 403b
00000090: c4fc de3a 843b 33ba 5091 b239 e0ab 6fb9
000000a0: eced c8bb f025 8039 89a2 c0bb 6cf0 95bb
000000b0: 5358 9a3b d88c 663b 6f44 6ebb 37cb 9e3b
000000c0: 1516 53bb 6c72 cf3a 168d 2e3c 0400 0080
000000d0: 30bd f2b8 5458 9d3b 0000 0000 7cdd 29b6
000000e0: 781f f2ba f756 003c 614e abbb 8445 c73b
000000f0: 5785 5abb ef2e 0bbb c876 703b 0400 0080
00000100: 0400 0080 4e58 e1ba 248b 52bb dc2e 7ab9
00000110: 27ad 6bbb d3c7 7a3b f80f e5ba e6d3 973b
00000120: 08d8 6e3a 7ea3 923b 7c8a e539 4e1a fc3b
00000130: 631e 103b 20a5 5e3a 0098 c7b9 20ef 6c3a
00000140: fa39 8e36 71bf af3a 36ca ef3b 9bd5 a23b
00000150: 0400 0080 0400 0000 20de e139 7ccb 8d3a
00000160: 9569 88bb fcc3 07ba 0400 0000 f281 4eba
00000170: d30a 0a3c ac17 423c 56a3 f1bb 32f2 c43b
00000180: c602 9a3a a85b 303b d879 633a 9cb3 143c
00000190: 0400 0080 794d 55bb b692 1d3b e2f3 6bbb
000001a0: 3e4a 493b 9513 14bc 1cdc 353c 5212 4c3b
000001b0: ba80 4dbb c8f2 aa3b cfcf 95bb c02a 11bc
000001c0: 5c15 dd3b fb18 50ba f8a1 ef3a 7681 2a3b
000001d0: 0400 0000 4077 933a 1822 353a 0400 0080
000001e0: 00e4 9f36 3c9d 4f3b 7ca7 6b39 c86d a0bb
000001f0: de47 95bb 327e aa3b 0400 0080 0400 0080
00000200: b383 f93b b2d0 0ab8 013b 9bb8 0400 0080
00000210: b039 71b8 7733 98b7 d3c0 fd3a 48e8 b3bb
00000220: d2f7 62bb 9776 e03b 3811 dbbb 648b a0bb
00000230: 17ea 4e3b 4fac 6638 a961 0b3c 5069 7cb9
00000240: b1e0 533b aa98 483a 54c7 b63b 167b 9cbb
00000250: f824 9bba 6cb4 293c 4c41 673b 26d1 fc3b
00000260: bf9d 9f3c e11c bc3c 7d96 1d3b 005c e6b9
00000270: 4a9f 4c3b 6067 e7b9 3f18 813c a6bb 133c
00000280: 77a0 64ba 2cf0 943b ea1a 13ba c24c 2a3b
00000290: ca08 f3ba a162 293b 8e26 e93b 59b4 193c
000002a0: 6f60 923c 2aa1 0e3a 1711 a0bc 2a0e 593c
000002b0: 0cad 913b 8f95 883b eec4 183c 881a 3b3a
000002c0: 5124 fe3b 206b dfbb 489e a03a 0400 0080
000002d0: 8bd2 00bb 1890 89ba 0000 0000 e69f ad8c
000002e0: 7fed 8cba 84c8 dcba 9249 853c 7d0b 823c
000002f0: dd07 ae3b b1da 113b 28f2 e23b 0400 0000
00000300: 0400 0080 614c 21bb 4c0b 2b3c 57da 2639
00000310: b710 153c 5541 293b 492b 303b 17c2 aabb
00000320: 42b2 133c a294 10bb 4108 a0b8 b9b7 3c3c
00000330: 8be2 4a3b e067 02bc ca91 2bbc a053 ac3b
00000340: 01c8 80b4 2f67 aeba 948a a1ba be9b fe3a
00000350: 0400 0080 0400 0080 8f0f e5bb f8a3 03bc
00000360: d002 e73b c031 f5b7 f5a6 e5b7 7e5c 2d3b
00000370: 941c cc3a 92f1 a03c a359 c1bc 54e2 813b
00000380: 5b33 113c a8ad 4f3b 0011 103c ef52 683c
00000390: 0400 0080 3070 e839 34cd f93b 30ac 643c
000003a0: d800 bd3b 89a8 c0bc c914 af3c 7c6d 88bb
000003b0: 747a 56bc 7082 25ba 5f67 153c 90f0 a6bc
000003c0: faa2 fc3a e718 86ba 7892 953b c060 d83b
000003d0: 0400 0000 99ad 913b 7891 cd3a 0400 0080
000003e0: e66d 9dbb 9267 abbb 8422 1fbb a51d d03b
000003f0: ea87 a23b 2086 033b 0400 0080 0400 0080
-0.0029314717 -2.1483343e-06 2.0411194e-38 6e-45 0.0006122596 4.9479168e-06 0.0043246886 0.0025477298
-0.0025435374 -0.001334163 -0.00073989434 -0.0005688714 0.0029885783 -1.6110803e-06 0.0007988247 0.0009268457
0.00472653 0.0027865958 0.0009589335 0.009753231 0.011638456 0.00068274746 -0.002110918 -0.0032282234
-0.0033352706 0.01040204 -0.00043313054 0.0054697907 0.0066306037 0.0005450716 -0.0045756386 0.0019367007
-0.00040449668 0.0030088718 -0.0026391386 0.0029384159 0.0017012586 -0.00068371766 0.00034059072 -0.00022856845
-0.006131878 0.00024442328 -0.0058787507 -0.0045757797 0.004710236 0.0035179164 -0.0036356708 0.0048460024
-0.0032209207 0.0015826947 0.010653755 -6e-45 -0.00011574698 0.0048017893 0.0 -2.5311883e-06
-0.0018472513 0.007833234 -0.0052278494 0.006081285 -0.0033343637 -0.0021237691 0.0036691893 -6e-45
-6e-45 -0.0017192455 -0.0032126391 -0.00023859314 -0.003596136 0.0038266077 -0.0017476073 0.0046334146
0.00091111707 0.004475056 0.00043781463 0.0076935655 0.0021990768 0.00084932335 -0.00038069487 0.0009038318
4.238679e-06 0.0013408494 0.0073178066 0.0049693114 -6e-45 6e-45 0.0004308084 0.0010818089
-0.004162977 -0.0005179045 6e-45 -0.000787764 0.008425432 0.011846464 -0.0073742075 0.0060103172
0.0011750094 0.00269101 0.0008677519 0.009076025 -6e-45 -0.0032547398 0.0024043745 -0.003600352
0.0030714418 -0.009037872 0.011099841 0.003113885 -0.0031357245 0.00521693 -0.004571892 -0.00886029
0.006746931 -0.00079382927 0.0018282523 0.0026017106 6e-45 0.0011250749 0.00069096824 -6e-45
4.765112e-06 0.0031679412 0.00022473739 -0.0048958994 -0.0045556864 0.005203032 -6e-45 -6e-45
0.0076145767 -3.3096127e-05 -7.401966e-05 -6e-45 -5.7512603e-05 -1.8143777e-05 0.0019359834 -0.0054903366
-0.0034632576 0.0068500745 -0.0066854022 -0.004899429 0.0031572634 5.4996748e-05 0.008507171 -0.00024071825
0.0032329971 0.0007652143 0.005577961 -0.004775415 -0.0011836579 0.010357957 0.0035286723 0.007715362
0.019484399 0.02296299 0.0024045997 -0.00043937564 0.0031222873 -0.00044136774 0.015758632 0.009016907
-0.0008721421 0.0045452323 -0.00056116155 0.0025985693 -0.0018542048 0.002584614 0.007115192 0.009381377
0.017868249 0.00054408854 -0.0195394 0.013248006 0.0044456776 0.0041682194 0.009324295 0.00071374374
0.007755794 -0.00681819 0.0012254203 -6e-45 -0.0019656743 -0.0010495214 0.0 -2.6751106e-31
-0.0010751932 -0.0016844426 0.016270433 0.015874619 0.005310996 0.0022255594 0.00692584 6e-45
-6e-45 -0.0024612176 0.010439705 0.00015912332 0.009098223 0.0025826294 0.0026881269 -0.0052111256
0.009014668 -0.0022061248 -7.630932e-05 0.011518412 0.0030957784 -0.007959336 -0.010471771 0.0052589923
-2.398738e-07 -0.0013305898 -0.0012324625 0.0019425077 -6e-45 -6e-45 -0.00699038 -0.008034699
0.007049896 -2.9229443e-05 -2.7376673e-05 0.0026452835 0.0015572482 0.01964644 -0.023602312 0.003963748
0.008862342 0.00316892 0.008793116 0.014179929 -6e-45 0.00044334074 0.007623339 0.013957068
0.005767923 -0.023517864 0.021372216 -0.004163442 -0.013090719 -0.0006313687 0.009118884 -0.020378381
0.0019274645 -0.001023081 0.0045645796 0.0066033304 6e-45 0.0044457433 0.0015683612 -6e-45
-0.0048043607 -0.0052308524 -0.0024282048 0.00635119 0.00496005 0.0020068958 -6e-45 -6e-45

exp_avg_sq f4 [2, 128]
00000000: fa86 2e3b 8f75 8034 94bd 7433 21b6 9831
00000010: cc45 e53b c0e2 9d34 c37d 3c3c 7122 b63b
00000020: 2424 df38 732e 303c 7057 1b3c 3376 c23b
00000030: 0587 543c 6e28 8b36 fa45 583c ea09 d03b
00000040: 1ccc 153c 3fb9 783b 20fa 443c 095b 223c
00000050: a36a 273c 1b1b a23c fb20 053a 2497 8b3b
00000060: 105d 273c dbf8 fc3c 0a64 1c3a cf6f f33b
00000070: b771 523b 8f06 4139 2ef5 b13b bbf6 723c
00000080: 65f9 203c 6c14 123c 19b8 ad3b 24c7 4a3c
00000090: d73a f53b 6c85 e136 b074 353c bd93 473c
000000a0: 8273 a53b 1258 e63b b2ce 953b 83b1 173b
000000b0: f153 423c 476b 023c d7b9 bd3b cd6c 343c
000000c0: b83e 3f3b c03d 163c e337 153c 12db b422
000000d0: 06ae 5138 d8c9 ff3b 0000 0000 f8fc ae34
000000e0: c487 0438 8369 0c3c ca9e 6d3b 8e81 bb3c
000000f0: c77d 353c 3538 2d3c a08e 783c e365 7532
00000100: 53ef 4d1a 62e7 e33b ea00 273b 2e24 5239
00000110: 089f bd3b db0f 153a af89 fa39 0535 343c
00000120: 5e8e 773c 3830 bf3b 221a 1f39 7bf1 f63c
00000130: 2697 ea3b 75a3 983b b78d b53b 58f3 e63b
00000140: 363b a336 c9ab 043a 6f76 6e3b 7e00 293a
00000150: 0707 a528 33a2 432c bb74 953b 4902 ad3b
00000160: 078f 393a e29d f93b e634 d430 2a79 8c3a
00000170: dbc5 ee3b 52a5 c53c 86e4 c63b e1af 5c3c
00000180: fcaa 5a3c b29f 333c 70cb 6a3c e3c7 573c
00000190: 51ea 4722 2d51 143c e9c8 4d3c 9991 163c
000001a0: a7fe 1f3c b5ac 593b ff17 d93c 310f 0f3c
000001b0: 49dc 963b 75ee d03b ce26 843a b5b1 1a3b
000001c0: 5fef 883a 1773 9837 005c a73b b488 363c
000001d0: b8e9 962f 83dd a33b 0037 8937 2536 251b
000001e0: 535b 0b3c 5bed 1d3c 0098 2037 c889 783a
000001f0: c9f9 923a 94d5 313c 8dbe 6125 f401 0000
00000200: fa00 d63b 37ce 0335 e639 4234 a1b4 5731
00000210: f59e 053c 222a 1435 d2ed 2c3c a003 a73b
00000220: faba d03a dc4f a93c 6d53 753c 225e 1a3c
00000230: d53c 313c e614 f935 acfc 843c 38da ea3b
00000240: ee37 ae3b 258d af3a 23c5 3e3c 5914 413c
00000250: 75b5 e83b fe06 ce3c 84db 3439 bacb 463c
00000260: 47bc c03c 7349 a13c badf be39 a68f e53b
00000270: 6efe 4b3a 412b 1936 78af 393c a388 893c
00000280: 3368 5b3c 02dc 1b3c 734d 0d3c 99a2 343c
00000290: d057 1f3c dce5 ae39 0cf5 663c 0bd9 8d3c
000002a0: d408 1c3c f41e 0e3c d0c8 a53c 67e2 293c
000002b0: d5a5 413c 6f21 943b 9123 833c 7c34 2a3c
000002c0: 147e 093c 5798 4f3c 2ef2 be3b 4865 0824
000002d0: cd08 463a 39ef f53b 0000 0000 5965 4731
000002e0: 3e2f 193a ce14 043c f66b 7f3c 76ad 493c
000002f0: 8445 963c 8cc6 593c d15d 843c 3a46 aa30
00000300: dddc 161c dab4 2b3c 9a11 1d3c e2d0 2f36
00000310: b1b1 863c f224 2039 423a ee38 3f56 3a3c
00000320: e6c3 943c 0055 473b c520 f534 2f78 663c
00000330: a884 083c a5de 023c f0ef 393c b5ce 0e3c
00000340: 0371 0e36 d719 2138 f1b3 423b b41c 4439
00000350: 4a88 1d27 1650 1a2f b7d9 fd3b 0a05 143c
00000360: 2a2f ec3b f916 243c ef8e 1a34 7aa6 f539
00000370: e110 b93b 3919 823c 3b20 e83c 5c01 f13b
00000380: 25f4 823c 426c 283c d466 993c da3d 0d3c
00000390: 8508 110a bbf6 673c 9e28 633c ccd1 b43c
000003a0: 8769 223c a3d1 a33c 94f4 843c 0ac5 2f3c
000003b0: 1286 613c 6241 e33b 652b 443b b63d 7b3c
000003c0: e28f 9839 d6ef 3939 47fd a93b 0403 483c
000003d0: 31cd 842d d3c6 be3b e99b e83a 96d9 1e1d
000003e0: db31 413c 6bad 103c 4f17 d43a 7659 1c3c
000003f0: 7d29 043c 603b d63b f43b 9123 f401 0000
0.0026630745 2.3927393e-07 5.6983097e-08 4.444488e-09 0.006996846 2.940851e-07 0.011504593 0.005558305
0.000106402 0.010753262 0.009481296 0.0059345006 0.012971644 4.1472294e-06 0.013200277 0.006348838
0.009142902 0.0037952212 0.012022525 0.0099094 0.010218295 0.019788316 0.0005078462 0.0042599607
0.010215059 0.030880382 0.0005965835 0.0074291 0.0032111236 0.00018408358 0.005430839 0.014829333
0.009825085 0.008916002 0.005301487 0.01237658 0.007483821 6.721055e-06 0.011075184 0.01218122
0.00504917 0.007029542 0.004571759 0.0023146577 0.0118608335 0.007960147 0.005789976 0.011012268
0.002918167 0.009169996 0.009107563 4.9021047e-18 4.9991555e-05 0.007806044 0.0 3.2594085e-07
3.1597694e-05 0.008570078 0.0036257976 0.022888925 0.011077351 0.010572483 0.015170723 1.4284043e-08
4.258633e-23 0.006955073 0.0025482723 0.00020040639 0.0057867803 0.00056862616 0.00047786298 0.010998969
0.015109627 0.0058346055 0.00015173157 0.030144444 0.0071591316 0.0046581575 0.0055405754 0.007048052
4.8646716e-06 0.00050609984 0.003638651 0.0006446912 1.8321728e-14 2.7801205e-12 0.0045610345 0.0052798134
0.00070785027 0.007617698 1.5440065e-09 0.0010717262 0.00728677 0.024126682 0.0060697226 0.013469667
0.01334643 0.010963367 0.01433073 0.013170215 2.7093575e-18 0.009052557 0.012560108 0.009189987
0.009765304 0.0033214514 0.0265007 0.008731649 0.0046038968 0.0063760825 0.0010082365 0.0023604457
0.0010447315 1.8173405e-05 0.005107403 0.011140991 2.7450908e-10 0.0050007715 1.6357284e-05 1.3665975e-22
0.00850566 0.0096391095 9.572133e-06 0.000948098 0.0011213358 0.010854144 1.95802e-16 7e-43
0.006530878 4.9101385e-07 1.8088721e-07 3.1389293e-09 0.008155574 5.519561e-07 0.010554748 0.0050968677
0.0015924864 0.020667963 0.014973504 0.009421857 0.010817726 1.8558028e-06 0.016233765 0.007167127
0.005316726 0.0013393505 0.011643681 0.011784636 0.0071017095 0.025149819 0.00017247914 0.012133533
0.023527278 0.019688344 0.00036406313 0.0070056496 0.00077817484 2.2823954e-06 0.011333339 0.016788786
0.013391542 0.009512903 0.008624422 0.011025094 0.009725526 0.00033359125 0.01409651 0.017315408
0.009523589 0.008674372 0.020237356 0.01036892 0.011819323 0.004520587 0.01600817 0.01038849
0.008391876 0.012670598 0.00582721 2.9576088e-17 0.0007554412 0.007505324 0.0 2.901592e-09
0.00058435265 0.008061601 0.015589705 0.012309423 0.018343695 0.013291966 0.016158016 1.2389088e-09
4.9916296e-22 0.01048013 0.009586716 2.6198618e-06 0.016442152 0.00015272552 0.00011359576 0.011373102
0.018159818 0.0030415654 4.565865e-07 0.01406674 0.008332409 0.007987653 0.011348709 0.008716275
2.122543e-06 3.8409456e-05 0.0029709304 0.0001870271 2.186201e-15 1.403467e-10 0.007746901 0.0090344045
0.007207771 0.010015243 1.4394367e-07 0.00046854076 0.005647764 0.015881168 0.028335681 0.0073548984
0.015985558 0.010279717 0.01872579 0.008620704 6.9830984e-33 0.014157946 0.013864664 0.022072695
0.009912855 0.019997424 0.016229905 0.01072813 0.013764875 0.0069352845 0.0029933092 0.015334537
0.000290989 0.0001773232 0.0051876637 0.01220775 1.5097786e-11 0.0058220415 0.001774666 2.1023615e-21
0.011791672 0.008830409 0.0016181263 0.0095428135 0.008066532 0.00653784 1.5746323e-17 7e-43

exp_avg f4 [2]
00000000: d070 083a b3b9 85ba
0.00052047987 -0.0010202437

exp_avg_sq f4 [2]
00000000: 2736 b53b 514c ec3b
0.005530137 0.007211246
