models/model500000.pt (torch, 15805 bytes, 12 tensors)

dense_layer_1.weight f4 [128, 4]
000000 9a 0a 70 bd e8 44 52 3f 95 ca d9 3f b1 41 4f 3f
       -0.05860386 0.8213639 1.7014948 0.8095961
000010 cf 50 f2 be 09 5d a3 be 7c 9b 07 40 03 78 ed bd
       -0.47327277 -0.31906918 2.118865 -0.11595156
000020 f6 1f ba bd 5b 28 d2 3e ed 70 34 40 7e c0 16 3f
       -0.09088127 0.41046414 2.8193924 0.5888747
000030 87 b6 b9 bd 2d 11 c1 3e 89 8b b3 3f de 72 ad 3e
       -0.090680175 0.37708417 1.4026958 0.338767
000040 77 7b e1 3c d9 aa 28 bd 02 c4 00 c0 e3 bc 4e 3e
       0.027524693 -0.041178558 -2.0119634 0.20189242
000050 d2 bc 4a bf 4b 14 82 bf d7 10 fa bf 1a 8b 46 bf
       -0.79194367 -1.0162443 -1.9536389 -0.77556
000060 75 b3 07 be 68 9f d2 bd db 70 ac bf d7 35 9d be
       -0.13252051 -0.102843106 -1.3471941 -0.3070514
000070 b5 1f 54 be 66 55 1b bf 99 e9 7a 3f e5 f3 f9 be
       -0.2071522 -0.6067718 0.9801269 -0.4881889
000080 dc ba 24 bd 22 e1 e6 3d a0 5a cb 40 be 0f 53 3f
       -0.040217265 0.112734094 6.3548126 0.82445896
000090 f4 46 51 3e 08 d8 a4 3f 20 45 40 3f 06 ad 75 3f
       0.20437223 1.2878428 0.75105476 0.9596714
0000a0 e5 2f 3f bd 37 72 81 bd 30 12 4e bf 60 6d 87 3e
       -0.046676535 -0.06320613 -0.804965 0.26450634
0000b0 96 ca 70 3c 5d ec c8 bd 5b 40 14 3f 5f 2d 5c be
       0.014696738 -0.09810708 0.579107 -0.21501683
0000c0 b2 73 00 be cb 09 dc be 5e 7e 0b c0 87 fe 25 be
       -0.12544134 -0.4297622 -2.1795878 -0.16210376
0000d0 61 17 d9 be ca 67 06 3c f1 14 53 bf 9b de 68 be
       -0.4240065 0.008203456 -0.8245383 -0.22741167
0000e0 6f c1 77 3e ea ac 7c 3c f6 dd 47 bf f3 9b d1 be
       0.24194883 0.015422085 -0.7807306 -0.40939292
0000f0 27 32 73 3d 63 40 4c be 0d c7 98 be 4e a6 ad be
       0.059374 -0.19946437 -0.29839364 -0.33915943
000100 33 78 b9 be f7 3e b7 be 6f ec 20 c0 3e fd 4f be
       -0.36224517 -0.35790226 -2.5144308 -0.20311448
000110 39 6b c6 be 66 6d 2d bf 97 ed c2 bf 03 44 71 bf
       -0.3875368 -0.67745054 -1.5228757 -0.942444
000120 85 bf 7c 3e b1 0d c8 be 77 4a f0 bf 90 db dc be
       0.24682434 -0.39072946 -1.8772725 -0.43136263
000130 94 49 d9 bf 8a e4 52 bf 4b f7 66 3f 35 76 e5 bd
       -1.6975579 -0.8237997 0.9022109 -0.11204187
000140 41 06 a5 bf cb c7 0e bf d7 11 d1 bf ad 3d ca be
       -1.2892534 -0.5577361 -1.6333569 -0.3950018
000150 27 96 f7 3e fd e0 0e 3f ea 91 d1 bd 3b 6a 81 3e
       0.48356745 0.55812055 -0.10232909 0.2527636
000160 e1 b9 75 bd b2 a7 b9 3c 58 93 c5 c0 8e 11 70 bf
       -0.05999172 0.022662971 -6.1742363 -0.93776786
000170 cd ac 5c 3f 44 8b dc 3e ef 4c 88 3f 9f 46 f4 3e
       0.86201173 0.43075 1.0648478 0.4771013
000180 e1 9e a9 3f 59 60 e7 3e 0f d4 af bf d0 cb 17 3b
       1.3251611 0.45190695 -1.373659 0.0023162253
000190 11 76 be bc 0c f1 cd 3c 9c 2b 10 c1 a7 0b 54 bf
       -0.023249658 0.025139354 -9.010647 -0.8283028
0001a0 6f 0d 08 3f 54 0d c4 be 19 66 0b c0 db 5c 5c bf
       0.531455 -0.3829142 -2.1781065 -0.86079186
0001b0 8f 01 af bf 87 aa 10 bf 2e ac 7d 3e 41 27 ee bd
       -1.3672351 -0.56510204 0.24772713 -0.11628581
0001c0 90 8f 42 bf 89 4a 36 bf 54 c4 aa bf 62 70 fc be
       -0.7600031 -0.7120748 -1.3341165 -0.4930449
0001d0 24 4a 41 bd db fb 57 3d 58 0c f5 c0 7d 44 5e bf
       -0.047189847 0.052730422 -7.657757 -0.86823255
0001e0 6f eb 5b 3f 59 5f 1e 3f 01 43 12 bf 48 a2 11 3f
       0.8590612 0.6186424 -0.5713349 0.56888247
0001f0 3e 5b 4c 3e b9 32 a3 bd ab 87 92 bf 2c 47 1c bf
       0.19956681 -0.07968659 -1.1447653 -0.610461
000200 9d 84 cf 3d 99 b1 f7 bd 47 a1 03 bf 34 40 08 be
       0.10132716 -0.12094421 -0.51417965 -0.13305742
000210 e4 5c 0c be 18 43 5e 3e ea 5b c6 bf c6 8b 17 be
       -0.1370731 0.21705282 -1.54968 -0.14799413
000220 ac 89 21 3e f0 6e 87 be 6a af bb 3f d1 d8 fd be
       0.15775174 -0.26451826 1.4662907 -0.4957948
000230 1a 83 ee ba 04 74 d3 be fd 6b 4d bf a1 2b ee be
       -0.001819703 -0.4129945 -0.802429 -0.4651766
000240 ea 3d 38 be b1 70 35 3e 02 3b 9a bf e7 f7 2a 3e
       -0.17992368 0.1771877 -1.2049258 0.1669613
000250 9f bc d2 3e 2d 7b 70 3e f6 36 c4 3f eb a9 91 3e
       0.4115953 0.23484488 1.5329273 0.2844995
000260 f0 01 3e 3f 69 f4 f5 3e 3b 76 99 3c 32 2e 68 3e
       0.74221706 0.48038033 0.018733134 0.22673872
000270 56 42 d6 3e fb 36 77 3f 35 1e 93 be 19 08 b5 3e
       0.41847485 0.9656827 -0.28733984 0.3535774
000280 f0 13 52 bd c4 9e 83 3f 2e 13 f3 bc 1f 6d 05 3f
       -0.051288545 1.0282826 -0.029672232 0.5211963
000290 fc d4 08 3d b3 46 4a 3c 04 05 06 c0 7e 68 70 3e
       0.033406243 0.012345958 -2.0940561 0.2347736
0002a0 a4 35 5e bc 94 70 dc 3c 4b d7 f1 40 72 15 f4 3e
       -0.013562594 0.02690915 7.557531 0.4767261
0002b0 2d 99 06 3f 1b 10 42 3f 96 00 67 3f 14 f9 d6 3e
       0.5257748 0.75805825 0.9023527 0.41986907
0002c0 53 99 50 be bf e6 ee 3d d8 2a 2c bf 73 77 f4 be
       -0.20370989 0.11665105 -0.67252874 -0.47747383
0002d0 22 24 ee 3c 02 09 6d be 19 31 37 c0 85 66 06 bf
       0.029069964 -0.23147967 -2.8623717 -0.5250018
0002e0 75 0b ba 3f b6 53 f8 3e 72 7a 97 3f 0c 77 ba 3e
       1.4534746 0.48501366 1.1834242 0.3641895
0002f0 bc 9c 79 be f1 cd 89 3c fa 0c c7 bf f5 92 13 be
       -0.24376196 0.016821833 -1.5550835 -0.14411528
000300 8c 6f 20 3f ed 87 ea 3e 8b 3f 6c bd 39 8a 8a 3b
       0.6267021 0.45806828 -0.057677787 0.004227903
000310 a5 ec 42 be 83 8b 03 bd 46 a5 8a bf af f4 75 3e
       -0.19035585 -0.03211547 -1.0831687 0.2401912
000320 4d 96 ba bf 1d 64 f1 be 63 37 b5 bf 07 fa 20 bf
       -1.4577118 -0.47146693 -1.4157528 -0.6288151
000330 92 55 8a 3f ae e2 06 3e e2 7a ab 3e ef 9a 15 3f
       1.0807364 0.13172409 0.3349219 0.58439535
000340 72 e9 67 bf 10 1b 40 bf e5 ce 02 3f 0f f0 e5 be
       -0.90590584 -0.75041294 0.51096946 -0.44909713
000350 be 56 1e bf c9 13 bf be 4e 15 5b bf d0 51 3e bf
       -0.6185111 -0.37319782 -0.85579383 -0.74343586
000360 18 21 94 3d d0 97 04 be 7c d2 53 3e e8 02 43 be
       0.07232875 -0.12948537 0.20685762 -0.19044077
000370 fe 9b 75 3f 50 17 f9 3e 19 3f 4b 3e 11 13 1e 3f
       0.9594115 0.486506 0.19848289 0.61747843
000380 38 49 6a be df 93 a5 3e 41 52 2f 40 0b ae f9 3e
       -0.22879493 0.3233938 2.7393954 0.48765597
000390 e0 b0 95 bf f4 32 62 bf df d2 cc 3f 1f 15 83 be
       -1.1694603 -0.88359 1.6001853 -0.25602052
0003a0 a7 8f 47 bd c9 93 92 3f 4a 00 22 40 e7 eb 73 3f
       -0.048720982 1.145135 2.5312676 0.95281833
0003b0 cb ef 7a 3f f2 d5 8b 3f 03 1d 27 c0 16 3e c0 3e
       0.98022145 1.0924666 -2.6111457 0.37547368
0003c0 b5 1a 96 3e 6f d5 c7 bc 4e fb bb 3d d1 0e 3d 3c
       0.2931725 -0.024393765 0.09178792 0.011539177
0003d0 6b 18 8b 3e a0 29 d8 be ed 54 e4 bf ae 82 eb be
       0.27167067 -0.42219257 -1.7838417 -0.45998138
0003e0 3c 18 83 bd c0 8e 0c 3e e7 22 b6 bf 80 61 cb be
       -0.06401107 0.1372633 -1.4229401 -0.39722824
0003f0 83 89 4c 3f 16 4b 4f 3e 84 86 69 bd f2 2d 07 3e
       0.79897326 0.20243487 -0.05701305 0.1320112

dense_layer_1.bias f4 [128]
000000 a4 87 e4 3e 91 db eb bf 77 66 fe bf d4 63 d1 bf
       0.44634736 -1.8426381 -1.987502 -1.635859
000010 81 7b 80 3f 1b 8e e2 bf 84 40 ac 3f c4 76 60 3f
       1.003769 -1.7699617 1.3457189 0.8768122
000020 13 93 bb bf 9c d3 de 3f 41 6f c6 3f 8b 6e 80 3f
       -1.4654258 1.7408328 1.5502702 1.0033735
000030 bb 85 a5 3f 9a 85 be bf 6d 2c bb 3f 0e 24 72 3f
       1.2931436 -1.4884522 1.4622933 0.94586265
000040 2a c2 98 3f ce 6d 18 3f 44 b8 9e 3f bf fd 67 bf
       1.1934254 0.5954255 1.2399983 -0.9062156
000050 87 d4 36 be 4f dd d3 3f 41 b8 b2 bf 47 04 de 3e
       -0.1785451 1.6551913 -1.396248 0.43362638
000060 19 18 21 3f a7 40 ee 3f 78 e9 ff 3e 49 f4 d4 3c
       0.62927395 1.861348 0.4998281 0.02599539
000070 1a 37 d2 be 87 6c ed bf c5 a2 c8 be 8b 1c ca 3f
       -0.41057664 -1.8548745 -0.39186683 1.5789961
000080 cb 65 a7 3f d5 40 ad 3f 66 9c 31 3f 3a ad 9f 3f
       1.307794 1.353541 0.6937927 1.247474
000090 30 9c a2 3f 9c e4 0c c0 5e eb 89 3f f3 61 f2 3f
       1.2703915 -2.2014532 1.0774953 1.8936142
0000a0 fb df 0a be 4d e8 92 3f a7 4f bd 3f a8 4a d9 bf
       -0.13562004 1.1477143 1.4789933 -1.6975908
0000b0 f2 b2 bb 3f 94 cb 7f 3f e6 7e 7f 3f 88 6d ad 3f
       1.4663985 0.9992001 0.99803007 1.3549051
0000c0 e8 85 8a 3f cd 96 af 3f 32 5f 4c bf 0e b2 29 c0
       1.0822115 1.3717896 -0.79832757 -2.6514926
0000d0 c9 e3 74 bc 00 7b 1b 3f 7e 99 e1 be b1 12 d5 bf
       -0.014946886 0.6073456 -0.44062418 -1.6646329
0000e0 56 56 c6 bf 66 47 95 bf e8 b9 80 3d 55 80 3e bd
       -1.5495098 -1.1662414 0.06285459 -0.046509106
0000f0 24 1f 5c 3f 17 55 a5 3f 0e 67 d5 3f d5 4a 36 c0
       0.85985017 1.2916592 1.6672075 -2.8483174
000100 e4 2f 04 c0 0b 74 6e 3f 39 93 d3 be c5 5c 03 c0
       -2.065423 0.9314582 -0.4132326 -2.0525372
000110 b7 9d 6c 3f a2 24 32 c0 ac c7 af bf b1 c4 9b 3f
       0.92428154 -2.783486 -1.373281 1.21694
000120 c5 ee c5 3f 99 38 4f 3f f9 11 1d c0 d5 5c b0 3f
       1.5463492 0.80945736 -2.454222 1.377833
000130 a4 e6 a2 3f 34 6b 85 3f 1e ee 98 3f b1 1c 88 3f
       1.2726636 1.0423341 1.1947668 1.0633756
000140 1e 1a 41 c0 c2 14 e0 bf c3 bb 10 c0 9a 33 c9 bf
       -3.017219 -1.7506335 -2.26146 -1.5718873
000150 6a f0 cd bf 48 2c 13 c0 7d dd 7f 3f 7d 11 8c 3f
       -1.6088994 -2.2995777 0.9994734 1.0942837
000160 02 7e 05 c0 4a ed 98 3f bb 4c f1 bf 86 0f ea bf
       -2.085816 1.1947415 -1.8851541 -1.8285987
000170 8d ca 90 bf 53 00 c6 3f a4 ae db 3f da 25 a9 3f
       -1.1311814 1.5468849 1.7162671 1.3214676
000180 2b 48 c4 3f 5d e8 99 3f 61 f8 b6 3f 20 b3 ae 3f
       1.5334524 1.2024037 1.4294549 1.3648415
000190 1f 52 d5 bf a4 5e 78 3f 3e 94 c1 3f 08 70 df 3f
       -1.6665686 0.9701941 1.5123365 1.7456064
0001a0 e2 13 aa 3f 0a c6 b1 3f c4 84 f1 3f b7 c0 a3 3f
       1.3287318 1.3888562 1.8868642 1.2793187
0001b0 c7 78 2e 3f 2f dd d0 3e bb 56 d5 bd 8e c5 95 3f
       0.6815304 0.4079375 -0.10416933 1.1700914
0001c0 0e ef 0d bf ae c7 c5 bf 2b 5e 3e 3f fb 46 af 3f
       -0.55442894 -1.5451562 0.7436244 1.3693537
0001d0 e0 17 1e bf c5 66 49 3f 22 04 c7 bf c6 67 01 c0
       -0.6175518 0.7867244 -1.5548136 -2.0219588
0001e0 b4 af ac 3f a0 72 80 3f 63 73 9d bf 87 62 0d bf
       1.349112 1.0034981 -1.2300838 -0.55228466
0001f0 dd c0 9b bf ff 39 a4 3f 46 70 15 c0 f2 d8 e2 bf
       -1.2168232 1.2830199 -2.3349776 -1.7722456

dense_layer_2.weight f4 [2, 128]
000000 f3 1c 05 3f ca b1 4c c0 68 83 8e c0 86 67 c0 bd
       0.519973 -3.1983514 -4.453541 -0.093947455
000010 8f d2 c8 3d 43 f2 ba c0 1f 76 d7 3e 42 c2 41 3f
       0.09805786 -5.842073 0.42082307 0.7568704
000020 a6 ca 00 c1 c9 f3 81 3f 1b 7c 40 3f 04 9c cf 3e
       -8.049475 1.0152522 0.7518937 0.40548718
000030 da ea d3 3e 45 48 86 c0 0a f0 26 3f a0 e6 cf 3e
       0.41390115 -4.196322 0.6521002 0.4060564
000040 3d 39 80 3e 34 61 e8 3e 33 7a b9 3e 62 fa 13 bf
       0.2504367 0.4538666 0.36226043 -0.5780393
000050 53 18 eb be d3 f0 57 3f de 66 a5 bf 3c 56 d3 3e
       -0.45916995 0.84351844 -1.2922018 0.4127673
000060 b6 52 7f be bb 72 e9 bf ce bf 0d bf 40 f0 5b 3f
       -0.24933895 -1.8238138 -0.55370796 0.8591347
000070 81 df 0b c0 4d 74 89 c1 2b 01 72 bf 56 5d 7d 3f
       -2.1855166 -17.181787 -0.9453303 0.98970544
000080 e0 dd ce 3e 66 34 ff 3e b1 8a c9 3e 0e 14 f6 3e
       0.40403652 0.49844664 0.39363626 0.48062176
000090 67 bb 97 3e 35 82 b9 c0 a8 d0 67 3f 0a b5 86 3f
       0.29635164 -5.7971444 0.9055276 1.0523999
0000a0 75 66 c7 be cc 52 55 3e cc 93 2d c0 da 54 4a 3f
       -0.38945356 0.20832366 -2.7121458 0.79035723
0000b0 35 a9 13 3f e8 c3 24 3e 45 33 3a 3f 05 d0 b1 3e
       0.57680064 0.16090357 0.7273448 0.3472902
0000c0 a4 8f cf 3e 61 fd ac 3e 92 cc 6f 3f c8 19 07 c1
       0.40539277 0.33787063 0.93671525 -8.443794
0000d0 b0 fe 4d 40 70 66 8e 3e d4 aa 8d 3c 5d b3 95 c0
       3.21867 0.2781253 0.017293371 -4.678145
0000e0 8a 56 7e 40 80 5d 30 bd 5a a1 13 bf 81 29 e2 bf
       3.974032 -0.04305792 -0.5766808 -1.7668916
0000f0 09 f8 ca bd 0d c5 e5 3e 6c 10 15 3f 29 c8 1e c1
       -0.0991059 0.448769 0.5822818 -9.923867
000100 cb b6 68 c0 5e 44 21 3f 12 bb 66 bf 5f b1 8a 3f
       -3.6361568 0.62994945 -0.90129197 1.0835379
000110 25 7e 1e 3f 80 57 ee c0 6f 7d 01 c1 d7 76 0f 3f
       0.6191123 -7.448181 -8.093123 0.5604071
000120 4f 2b 60 3f ca 86 de 3e 35 cc 38 c1 15 bb 35 bf
       0.87566084 0.4346221 -11.549855 -0.7098859
000130 04 3b c9 3e 11 1e a3 3e 19 05 97 3e 4a 83 f1 3d
       0.39302838 0.31858876 0.29496077 0.117926195
000140 6d 0f b6 c0 72 21 15 40 51 1e 2b bf e6 d1 7b c0
       -5.689383 2.3301663 -0.66843134 -3.9346862
000150 cd 13 8e c0 84 55 9c c0 6f e9 1f 3f 34 2c 95 3e
       -4.439917 -4.885439 0.62465566 0.29135287
000160 bf 09 0e 40 91 68 24 3e c3 74 b8 40 85 72 70 c0
       2.2193449 0.16055514 5.764253 -3.7569897
000170 6d c0 c1 3f b5 3a 1c c0 9c e6 34 c0 25 8f 2f 3f
       1.5136849 -2.4410832 -2.8265753 0.68577796
000180 cc 6a 0c 3f 97 6e 8f 3e 50 51 72 3f c6 d3 03 bf
       0.5485046 0.2801406 0.94655323 -0.51495016
000190 e1 ce 0d c0 a4 61 e9 3e 60 db 33 3f db eb a8 3f
       -2.215752 0.45582306 0.70256615 1.3196977
0001a0 3f 8e f0 3e 6f c8 a9 3c 56 0b 11 bf 74 88 93 3e
       0.46983525 0.020725457 -0.5665792 0.28815043
0001b0 3f a2 13 bf d1 a1 66 3f 86 c6 94 3e f6 a8 14 bd
       -0.5766944 0.9009066 0.2905771 -0.036293946
0001c0 f9 1c 26 c0 13 a3 38 40 7e 5f 4a 3d ba a7 0c 3f
       -2.5955184 2.8849533 0.049407475 0.5494343
0001d0 ed c1 b6 bb 57 52 56 3d 35 dd 96 c0 70 cf a1 c0
       -0.005577317 0.05232462 -4.714503 -5.056572
0001e0 b6 a5 1d 3f bf a2 10 3f fd 91 44 c1 a7 f0 07 bf
       0.6158098 0.5649833 -12.285642 -0.5310158
0001f0 88 01 1b be 48 d1 96 3e 15 58 6d c0 aa 38 88 c0
       -0.15137303 0.29456544 -3.708501 -4.256917
000200 24 6a 25 3f 45 18 2e c0 9a 9f 46 c0 db 52 a7 bf
       0.6461508 -2.7202313 -3.1034913 -1.307216
000210 eb b6 2e 3f f1 78 c6 c0 a0 83 39 3f 13 b2 81 3e
       0.6824786 -6.2022634 0.7246647 0.25331172
000220 48 91 ff c0 94 05 82 3f cc 1d 91 3f 70 6b 86 3e
       -7.9864845 1.0157952 1.1337218 0.26253843
000230 57 a9 81 3f f7 18 2e c0 62 3b 23 3f fb a5 ce 3e
       1.0129803 -2.7202737 0.63762486 0.40361008
000240 47 f5 9d 3f ae b3 3e 3f d5 e9 61 3f ef 5d 8d bf
       1.2340478 0.7449292 0.88247424 -1.1044291
000250 c4 f7 5b 3e 88 94 60 3f b8 6e 38 c1 15 3b f1 3e
       0.21481234 0.8772664 -11.527031 0.4711539
000260 fb 23 4c 3f 4d 1b 62 c0 ef 43 13 bf 51 2f 2b 3f
       0.797424 -3.5329163 -0.57525533 0.66869074
000270 be 49 03 c0 b8 41 18 c1 ed 55 98 bf 32 4c 69 3f
       -2.0513759 -9.516045 -1.1901222 0.9113189
000280 07 fc 05 3f ac bd 4d 3f e0 9f b7 3c f0 14 1b 3f
       0.5233769 0.8036754 0.022415102 0.60578823
000290 17 70 2e 3f 2f 5a ec c0 8a 28 2d 3f 83 10 7f 3f
       0.68139786 -7.3860087 0.6763998 0.9963457
0002a0 ab d5 5c bf 05 00 6e 3f 1a f9 5b bf b0 32 33 3f
       -0.8626353 0.9296878 -0.85926974 0.6999922
0002b0 f7 79 15 3f bd 82 ac 3f 9c 3f 85 3f 09 64 41 3f
       0.5838923 1.3477398 1.0410037 0.75543267
0002c0 0d 85 37 3f 72 92 4d 3f 04 f9 77 3f da b0 d6 c0
       0.71687394 0.8030158 0.9686434 -6.7090883
0002d0 ae 22 cc 3f da a1 07 3f b4 bc 4d bd 4a 3d a2 c0
       1.5948083 0.5298134 -0.05022879 -5.0699816
0002e0 57 d3 1a 40 b4 80 4e bf 41 0a 28 bf e7 4f 3c bf
       2.4191492 -0.80665135 -0.65640646 -0.7355942
0002f0 76 e7 96 be 3d 52 83 3f d3 30 48 3f 3d e5 13 c1
       -0.29473466 1.0259472 0.781995 -9.243466
000300 e3 18 1e c0 48 d3 84 3d 8f 52 9f bf 69 07 07 40
       -2.470269 0.06485611 -1.244707 2.1098273
000310 23 16 86 3e b5 48 ea c0 04 4f 3d c1 e6 a4 40 3f
       0.26188764 -7.3213754 -11.831791 0.75251615
000320 ec fd 42 3f 3b c0 f2 3e 0c 59 4e c1 a9 45 c7 bf
       0.76168704 0.47412285 -12.89674 -1.5568134
000330 ec 6d 43 3f 53 e5 19 3f 6d da 1b 3f 57 b8 26 3f
       0.763396 0.60115546 0.60880166 0.6512503
000340 7c 2f 9b c0 33 93 90 40 ba 49 07 bf 29 3b 92 c0
       -4.8495464 4.5179687 -0.5284687 -4.5697217
000350 a0 99 ab c0 1e f0 a6 c0 28 37 73 3e a1 b1 59 3f
       -5.362503 -5.216811 0.23751509 0.85036665
000360 a7 01 06 40 bd 48 7c 3f 00 fb 81 40 70 e0 8e c0
       2.0938509 0.9854849 4.0618896 -4.464897
000370 99 52 c0 3f 09 f2 41 c0 61 e7 b2 bf 21 90 4e 3f
       1.5025207 -3.0303977 -1.3976861 0.80688673
000380 1a 7b 50 3f 4e 02 3d 3f 7e 38 0c 3f f6 0b ed bf
       0.8143784 0.7383164 0.547737 -1.8519275
000390 41 5a d4 bf 16 5e 60 3e dc 13 54 3f e4 8f 1f 3f
       -1.6590043 0.21910891 0.82842803 0.62328935
0003a0 ed dc 54 3f cd 55 45 c0 d0 69 47 c0 50 58 1d 3f
       0.83149606 -3.0833619 -3.1158333 0.6146288
0003b0 18 cf 03 bf ee 3f 37 3f 59 b3 1d 3f c8 a6 44 c0
       -0.51487875 0.71581924 0.6160179 -3.0726795
0003c0 4e 46 2d c0 9e 94 e3 3f 79 2e 0c 3f c4 f2 20 3f
       -2.707416 1.7779729 0.5475841 0.6287043
0003d0 73 c6 bc bc 9f 39 0c 3f e1 5f 47 c0 14 4e ce c0
       -0.023043847 0.5477542 -3.115227 -6.447031
0003e0 f7 81 4d 3f bc 75 03 3f a7 00 73 bf 42 40 0a bf
       0.80276436 0.51351523 -0.9492287 -0.540043
0003f0 d5 a4 72 be 96 1b ac 3f c8 7e f0 bf 80 23 9f 3f
       -0.23695691 1.3445919 -1.878869 1.2432709

dense_layer_2.bias f4 [2]
000000 d1 a2 31 3f d4 7d 68 3f
       0.69389063 0.90817

exp_avg f4 [128, 4]
000000 1a 91 22 bd 2c db 11 bd a0 01 f8 3a 84 47 30 3c
       -0.03968916 -0.03560941 0.0018921383 0.010759238
000010 04 00 00 80 04 00 00 80 04 00 00 80 04 00 00 80
       -6e-45 -6e-45 -6e-45 -6e-45
000020 04 00 00 00 04 00 00 00 04 00 00 00 04 00 00 00
       6e-45 6e-45 6e-45 6e-45
000030 04 00 00 00 04 00 00 00 04 00 00 00 04 00 00 00
       6e-45 6e-45 6e-45 6e-45
000040 14 2b cf bc 3e be ac bc d7 a8 02 3a 17 b1 6f 3b
       -0.025289096 -0.021086808 0.00049842655 0.003657406
000050 36 7d b0 3e 20 b3 3b bd 84 5e fe bc d4 35 b9 bd
       0.34470528 -0.045825124 -0.031050928 -0.0904347
000060 47 9a d0 bc a4 5d 9c bc 95 f2 2a 3b b5 30 21 3c
       -0.02546419 -0.01908762 0.0026084532 0.009838273
000070 c8 25 70 3a 3a e7 60 3c 63 92 73 3b 3b 50 37 3c
       0.0009160903 0.013727004 0.003716611 0.011188562
000080 11 8d bf bd c0 88 48 39 22 73 09 3c f3 f4 c5 3c
       -0.09353078 0.0001912443 0.008389266 0.024164652
000090 91 8c 8f bd 18 9e 77 bd f8 4d 88 3b 00 74 a8 3c
       -0.07009233 -0.060453504 0.004159685 0.020563126
0000a0 04 43 21 bd 53 4c ec bc 9a 19 9a 3b 09 c2 8c 3c
       -0.03937055 -0.028844988 0.004702759 0.017182367
0000b0 f0 f9 05 bc 1a af 8c bb b0 bd 2a 3b d0 3d 08 3c
       -0.0081772655 -0.0042933347 0.0026053004 0.0083155185
0000c0 8e cd 14 bd 84 80 e9 bc a4 f3 23 3b 07 b3 2b 3c
       -0.036328845 -0.028503664 0.0025017047 0.010479695
0000d0 04 00 00 80 04 00 00 80 04 00 00 80 04 00 00 80
       -6e-45 -6e-45 -6e-45 -6e-45
0000e0 9d 57 ad bc f5 d1 62 bc 1c bf 87 3b 51 6b 64 3c
       -0.021159941 -0.013844003 0.004142655 0.013941602
0000f0 1c c3 5c bc 2c 61 11 bc 18 b7 28 3b 26 55 0e 3c
       -0.013474252 -0.008873265 0.0025743898 0.008687293
000100 a4 bd 39 bd 06 fc 18 bd 7b 93 b5 3a da 2b 03 3c
       -0.04534687 -0.037349723 0.0013853157 0.0080060605
000110 8c 4f 89 bc 20 b8 9e bb b4 a2 c0 3a 3a 3c e9 3b
       -0.016761564 -0.0048437268 0.0014696927 0.0071177753
000120 da 47 05 bd bf fa cd bc c2 25 13 3b 01 f7 21 3c
       -0.032539226 -0.02514398 0.0022452925 0.0098855505
000130 97 d9 cf 3c 8c 90 a8 3b fa 53 89 ba ea 79 ea bb
       0.02537231 0.0051441845 -0.0010477297 -0.0071556466
000140 f4 b8 37 bc 40 6a 66 bc 76 95 3c bb 1b f1 f7 bb
       -0.01121353 -0.014063418 -0.002877561 -0.007566584
000150 da e6 55 bc 2e 58 ed bc f8 c2 32 3b 29 78 10 3c
       -0.013055528 -0.028972711 0.0027276855 0.008817711
000160 f7 1e 11 bc d1 6f 16 3d eb 1b 82 bb 8a b7 ed bc
       -0.00885748 0.03672773 -0.0039706132 -0.029018182
000170 9c 25 f4 bb ac 63 2e bc 33 a6 a9 3a 3b 62 57 3b
       -0.0074507724 -0.010643881 0.0012943208 0.0032864946
000180 42 a0 b2 bb 70 63 c9 bb a7 33 10 3a 31 2c 8b ba
       -0.005451233 -0.006145887 0.0005500861 -0.0010618028
000190 cc 0c 19 3e 94 5a e0 3d 38 b5 67 bc a9 03 5a bd
       0.14946288 0.109547764 -0.014142327 -0.053226147
0001a0 a3 eb 32 bc e6 50 fc 39 00 90 35 bb 15 83 d0 bb
       -0.010920438 0.0004812546 -0.002770424 -0.0063632824
0001b0 3c e7 3c bc ce 84 4e 3c 4f 54 68 3b 1c c5 1a 3c
       -0.01152974 0.012604905 0.0035450642 0.009446409
0001c0 64 de 0e 3d 90 f6 8d bc a4 f0 fe bb 7b 99 d4 bc
       0.034880057 -0.017329484 -0.0077801514 -0.025952091
0001d0 0f d6 15 3e b4 79 ab 3e d9 a7 3a bd 80 ae 47 be
       0.14632438 0.3349129 -0.04557023 -0.1950016
0001e0 57 6d 6f 3c 90 75 f1 3c 90 b1 db ba b3 ab 60 bb
       0.014613471 0.029475003 -0.0016761292 -0.0034282028
0001f0 9b 78 f5 bc f8 32 9d bc ea 74 ce 3b ff 34 ac 3c
       -0.029964736 -0.019189343 0.0063005583 0.021021364
000200 51 40 93 bc 74 dd 50 bc 44 78 26 3b 98 2c 13 3c
       -0.017975004 -0.012748111 0.0025401274 0.0089828
000210 1c 07 e6 bc e5 75 aa bc e0 78 4b 3b ae b3 3c 3c
       -0.028079562 -0.02080817 0.003104739 0.011517448
000220 88 a1 f2 39 48 42 52 3b 5c f7 26 3b 85 0e f8 3b
       0.00046278187 0.0032082964 0.0025477028 0.0075700902
000230 39 f2 a9 bc 43 f5 6f bc 8c 04 46 3b 22 36 2e 3c
       -0.020745384 -0.014645877 0.0030215112 0.010633023
000240 38 b4 c7 bc af 4f 9b bc 46 ae ec 3a 9f 70 f2 3b
       -0.024377927 -0.018958895 0.0018057309 0.0073986794
000250 04 00 00 00 04 00 00 00 04 00 00 00 04 00 00 00
       6e-45 6e-45 6e-45 6e-45
000260 b7 37 03 bc b5 0f e4 bc fa 1b 0a 3b 55 13 0d 3c
       -0.008008889 -0.027839521 0.0021073804 0.008610566
000270 ac ed a0 bc 2c 74 1a bd 97 5d 5e 3b c7 27 52 3c
       -0.01964458 -0.037708446 0.0033930296 0.0128268665
000280 1e 2c 88 bc 84 3c bf 3c 50 76 90 36 c0 ad 90 bb
       -0.0166226 0.023344286 4.305308e-06 -0.004415244
000290 71 9d 0b bd 22 b9 e4 bc 05 c5 99 3a 5d b3 d1 3b
       -0.034085695 -0.02792031 0.001173169 0.0063995556
0002a0 80 ab f5 b9 14 14 40 bd 97 f3 32 bc 71 b1 fb bc
       -0.0004685782 -0.046894148 -0.010922334 -0.03072426
0002b0 19 d3 18 bc 6b eb 9d bc 7d 9e c9 3a 84 97 80 3b
       -0.009327673 -0.019277295 0.0015382316 0.003924312
0002c0 56 a6 9f bc e3 3f 53 bc 65 10 70 3b 86 1c 4b 3c
       -0.019488495 -0.01289365 0.0036630866 0.012396937
0002d0 24 2e 57 bd c0 a0 2e bd ae 29 7a 3a 74 ca 03 3c
       -0.052534238 -0.042633772 0.0009542954 0.008043874
0002e0 43 e6 78 bc fe 32 cf bc 1a 65 34 3b 61 94 05 3c
       -0.015191617 -0.02529287 0.0027526082 0.008153052
0002f0 a9 b2 dc bc 8c b8 aa bc d5 0a 0b 3b b8 01 0c 3c
       -0.02694066 -0.020839952 0.0021216173 0.008545332
000300 33 61 b2 ba 82 f8 b1 bc 27 40 88 3a 75 bf a7 3b
       -0.001360929 -0.021724943 0.0010395095 0.005119259
000310 af ae eb bc c4 15 b8 bc 8c 85 06 3b 74 5f 0b 3c
       -0.028769819 -0.022471316 0.0020526377 0.0085066445
000320 97 82 88 bc 48 fc a6 3b 5c be 37 3b 2a 79 2e 3c
       -0.016663833 0.0050959922 0.0028037047 0.010649005
000330 04 00 00 00 04 00 00 00 04 00 00 00 04 00 00 80
       6e-45 6e-45 6e-45 -6e-45
000340 40 7b 3f bc 26 7b 62 3d db b3 6e 3c 65 b7 1d 3d
       -0.0116871 0.055293225 0.014569248 0.038504977
000350 35 87 54 bc f0 d5 b9 bb ea 79 77 3a ca d8 d4 3b
       -0.012971689 -0.0056712553 0.0009440469 0.00649557
000360 00 00 00 00 00 00 00 00 00 00 00 00 00 00 00 00
       0.0 0.0 0.0 0.0
000370 bd 5d 7a 3d 91 0d e7 3d 28 e1 2d bc 05 f2 95 bc
       0.061124552 0.112818845 -0.010612763 -0.01830388
000380 04 00 00 00 04 00 00 00 04 00 00 00 04 00 00 00
       6e-45 6e-45 6e-45 6e-45
000390 4a 20 b6 3c ea 10 7b 3c 77 4a 95 3a 68 f9 7e ba
       0.022232193 0.015323857 0.001138999 -0.00097264955
0003a0 ab 00 aa 3c 1c 1f d8 3c e4 25 11 bb 0e 1e 0b bc
       0.020752272 0.026382022 -0.0022147829 -0.008491052
0003b0 e2 24 83 3c 7d 08 26 3d a4 4c 88 bb 13 b4 88 bc
       0.016008798 0.04053544 -0.004159527 -0.016687429
0003c0 b6 5c 2d 3c 74 38 0b 3c 60 a1 1b ba 94 ba 2f bb
       0.010581186 0.008497346 -0.00059368275 -0.002681409
0003d0 58 07 1e bd 03 36 ee bc be aa 3b 3b 76 99 48 3c
       -0.038581222 -0.02907849 0.0028635706 0.012243619
0003e0 e2 5a dc bc 93 9c 9d bc 46 b7 6f 3b 77 79 55 3c
       -0.026898805 -0.0192397 0.0036577745 0.013029448
0003f0 04 00 00 00 04 00 00 00 04 00 00 00 04 00 00 80
       6e-45 6e-45 6e-45 -6e-45

exp_avg_sq f4 [128, 4]
000000 0d bd a0 3c 07 a9 32 3b 5f 6e 75 38 b8 b1 00 3b
       0.019621396 0.0027261393 5.8515343e-05 0.0019637179
000010 a4 43 53 3b fb 92 a2 3b 19 06 76 37 8e 04 e4 37
       0.0032236362 0.004961369 1.4664162e-05 2.7181839e-05
000020 50 d8 e1 37 c1 0a fc 38 e6 94 c1 34 84 74 13 36
       2.6922819e-05 0.000120182995 3.605739e-07 2.1972528e-06
000030 f4 d1 f8 2c 23 74 b9 2d 34 7d 99 29 22 0b cc 29
       7.0718934e-12 2.108364e-11 6.816284e-14 9.061351e-14
000040 4d 25 6f 3c 22 24 2b 3b 41 5f 2c 38 db 65 d5 3a
       0.014596296 0.0026114066 4.1096708e-05 0.0016280966
000050 fa 2d ef 3f af 63 ab 3e c1 ea 13 3b 2f 82 67 3d
       1.8685906 0.3347449 0.0022570344 0.056520637
000060 a8 7e af 3c 73 43 94 3b 33 4b 87 38 8a 98 11 3b
       0.0214227 0.004524642 6.4513086e-05 0.0022216165
000070 49 9a dd 3c 16 9a bb 3b 50 35 84 38 61 b2 c5 3a
       0.027051108 0.0057251556 6.304181e-05 0.0015083068
000080 c4 13 89 3e 4e 76 ff 3c 0d 0a 50 3b e6 85 2a 3d
       0.26772892 0.031184342 0.0031744272 0.0416316
000090 cb a5 7f 3d 5f b1 0d 3c ef 15 3b 39 b4 86 be 3b
       0.062413972 0.008648246 0.0001784188 0.0058143977
0000a0 dd 15 6c 3d bb 3f 4c 3c 7a 89 35 39 a6 0e bd 3b
       0.057638038 0.012466366 0.00017312719 0.0057695685
0000b0 36 15 11 3c b2 c2 09 3b 51 0e cb 37 87 2a 24 3a
       0.008855155 0.0021020588 2.4206152e-05 0.00062624406
0000c0 82 23 12 3d d1 81 d0 3b 46 b5 d9 38 08 75 7f 3b
       0.035678394 0.0063631316 0.00010381131 0.0038979668
0000d0 38 93 8f 03 2f 1f 33 02 8d 56 1f 00 fc 13 a4 02
       8.438584e-37 1.3159792e-37 2.877949e-39 2.4109105e-37
0000e0 8e b1 e5 3c 93 25 d4 3b 83 ab aa 38 7b 50 1c 3b
       0.028038766 0.0064742058 8.138178e-05 0.002385168
0000f0 00 94 34 3c e8 54 26 3b 09 3d 06 38 25 d9 76 3a
       0.011021614 0.0025380198 3.2004933e-05 0.00094165123
000100 47 92 44 3d 7c 43 fe 3b 0a 1c 0c 39 71 c0 af 3b
       0.047991063 0.0077595096 0.00013361886 0.005363517
000110 c8 f3 bc 3c c0 bb 7e 3b a1 80 75 38 a8 7e 0c 3b
       0.023065463 0.0038869232 5.8532347e-05 0.0021437798
000120 43 2e d9 3c 68 d0 a4 3b 01 ff 99 38 75 84 3f 3b
       0.026511317 0.005029727 7.343107e-05 0.0029223238
000130 de ed 40 3d f1 27 d7 3b 47 02 e0 38 f5 9f 63 3b
       0.047101848 0.0065660407 0.000106815765 0.0034732793
000140 bf 17 52 3c d1 e3 12 3b 5b 0c bf 37 a2 6f 05 3a
       0.012823044 0.0022413621 2.2774728e-05 0.0005090182
000150 e1 1d 34 3d 5b f7 cc 3b 71 01 06 39 f2 95 89 3b
       0.043973807 0.006255073 0.00012779773 0.004198783
000160 cc 2f 10 3d d4 c7 8b 3c 7d 7a 2b 39 0e 69 94 3c
       0.035201833 0.017063059 0.00016353461 0.0181165
000170 8b 61 19 39 f6 3f 41 3a 75 9c 33 37 a3 73 ae 39
       0.00014627555 0.00073718966 1.0705659e-05 0.00033274022
000180 65 ef 7b 39 93 34 b8 3a 11 a5 71 37 0c 47 2e 3a
       0.00024026407 0.0014053754 1.4403152e-05 0.000664816
000190 13 10 e2 3e d1 ba bc 3d 08 78 54 3a 10 7d 35 3d
       0.4415289 0.0921532 0.0008105044 0.044308722
0001a0 cd c6 2f 3b 97 dd 56 3b f5 0b b6 37 cf 8c 4e 3a
       0.0026821375 0.0032785886 2.1701659e-05 0.00078792585
0001b0 f6 c2 2c 3d 4d ab 03 3c ae 96 bb 38 cc 63 28 3b
       0.042178117 0.008036447 8.944921e-05 0.002569425
0001c0 a7 29 9c 3e 55 f5 5b 3d 4f 5e 21 3a 76 e8 90 3c
       0.30500528 0.053700764 0.00061557157 0.017688971
0001d0 3f 25 09 3f 3f e9 e9 3e c0 e3 27 3c 61 48 a3 3e
       0.5357246 0.45685765 0.010247171 0.31891158
0001e0 60 1f 36 3a 57 5e 50 3b d2 0b 98 37 9c b3 50 39
       0.0006947424 0.0031794512 1.8125316e-05 0.00019903335
0001f0 07 31 7d 3d b1 54 6b 3c 60 c1 3a 39 91 e6 a7 3b
       0.061814334 0.014363454 0.0001781038 0.005123921
000200 2d 56 64 3c 8e be 4a 3b c8 23 2e 38 ee b4 ad 3a
       0.0139365615 0.0030936333 4.1518157e-05 0.0013252774
000210 86 d8 e1 3c dd 1e c1 3b 16 00 ae 38 b2 5e 38 3b
       0.027569067 0.005893572 8.2969826e-05 0.0028132615
000220 14 5c f6 3b 56 6a e2 3a 39 0a 91 37 c0 ea c0 39
       0.007518301 0.0017274122 1.7290107e-05 0.00036795996
000230 92 c3 9b 3c 34 e6 82 3b 65 a7 68 38 05 45 e9 3a
       0.019014154 0.0039947275 5.546901e-05 0.0017797059
000240 8d 4f 88 3c fc 02 5b 3b de 24 51 38 98 0d ee 3a
       0.016639495 0.0033418527 4.986382e-05 0.001816201
000250 92 df 11 2f c4 93 97 2f e7 cd 7a 2b e3 59 5d 2b
       1.3267101e-10 2.7571734e-10 8.910359e-13 7.8639715e-13
000260 54 e5 f4 3a 65 c3 49 3b 06 d1 47 38 0f f7 e5 3a
       0.0018684068 0.003078663 4.7639965e-05 0.0017544943
000270 9f 69 80 3d 4c 2d 0c 3c ac 14 3e 39 e1 68 be 3b
       0.062701456 0.0085557215 0.00018127513 0.0058108424
000280 f9 7c 9c 3b 8f fa 11 3b 1b 37 2b 38 79 6c 91 3a
       0.00477564 0.0022274589 4.0820898e-05 0.001109495
000290 fb f3 e0 3c fc e9 a5 3b 9b 2b a6 38 24 58 4a 3b
       0.027460089 0.0050632935 7.923619e-05 0.003087529
0002a0 c2 08 ae 3e 1c 51 95 3d d3 a1 22 3a 38 4c 89 3c
       0.33991057 0.07290861 0.0006203923 0.016759977
0002b0 f4 d0 94 39 4b 8d a6 3a bd b9 f9 36 f8 13 61 38
       0.00028384442 0.0012706904 7.442401e-06 5.3662778e-05
0002c0 78 20 b9 3c 0e 39 aa 3b 0e 16 8a 38 a7 dc ff 3a
       0.02259849 0.0051947897 6.584461e-05 0.0019520716
0002d0 ca 87 66 3d 54 85 16 3c 9d 53 18 39 79 e2 ca 3b
       0.056281842 0.009187061 0.00014526998 0.0061915484
0002e0 8e 3b 20 3a 50 55 4f 3b 56 c7 37 38 1c de ca 3a
       0.000611239 0.0031636544 4.3816246e-05 0.0015477571
0002f0 9f 45 aa 3c 91 00 8a 3b 0b da 82 38 3c a4 13 3b
       0.020785151 0.0042114933 6.239497e-05 0.0022528311
000300 53 be 39 3b 54 43 eb 3a db 63 0f 38 08 7c 8e 3a
       0.0028342202 0.0017949142 3.4186854e-05 0.0010870704
000310 ab e9 ba 3c 46 4b 95 3b 0d 31 8f 38 47 da 23 3b
       0.0228165 0.0045560924 6.827908e-05 0.002500193
000320 ce 7c 74 3d b2 dc 28 3c 34 aa 00 39 6a e2 6f 3b
       0.059689336 0.010306524 0.00012270437 0.003660346
000330 3e 67 d3 39 2a e9 ca 3a c1 b6 bd 35 05 f4 6f 38
       0.00040321978 0.0015480865 1.4134786e-06 5.72093e-05
000340 f0 33 02 3f 41 26 cb 3d 63 a2 78 3a 8c c9 cb 3c
       0.508605 0.09919406 0.0009484647 0.024876378
000350 b1 47 30 3c 8f 4b ee 3a 3c 5f f5 37 d5 9c 8e 3a
       0.01075928 0.0018180477 2.9250623e-05 0.001088048
000360 00 00 00 00 00 00 00 00 00 00 00 00 00 00 00 00
       0.0 0.0 0.0 0.0
000370 bd ba 3c 3c f1 fd 25 3d e4 9a 8f 39 80 7a a5 3a
       0.011519131 0.04052538 0.00027390488 0.0012625009
000380 d0 24 5f 31 11 c3 37 32 45 ee 5e 2e 5f 9c cd 2f
       3.2471696e-09 1.0696355e-08 5.0688582e-11 3.740039e-10
000390 8f 08 aa 3c f7 c1 07 3b 5c 0c 3c 38 d0 e8 cf 3a
       0.020756034 0.0020714977 4.4834203e-05 0.001586223
0003a0 9c 5e 5c 3c c5 30 0f 3b 44 28 3d 38 2a fb d1 3a
       0.013450291 0.0021849137 4.509861e-05 0.0016020287
0003b0 40 1f bc 3a 6b 71 d5 3b f6 bd fe 38 48 38 0d 3b
       0.0014352575 0.0065137646 0.00012147047 0.0021548439
0003c0 ac 3c 46 3b 00 23 18 3a f9 8e 15 37 36 52 b1 39
       0.0030248566 0.0005803555 8.9143805e-06 0.00033821323
0003d0 06 41 17 3d 58 b2 e7 3b 1e af dc 38 87 f4 83 3b
       0.036927246 0.007070821 0.000105230356 0.0040269527
0003e0 94 09 f6 3c 9d 2f d9 3b 1a 35 bc 38 4b f9 3d 3b
       0.030033864 0.0066279904 8.9744295e-05 0.0028987702
0003f0 d0 2d 4a 30 4a 91 19 31 c1 01 91 2c 4a 60 68 2e
       7.3552275e-10 2.2347018e-09 4.1213426e-12 5.2836215e-11

exp_avg f4 [128]
000000 f0 a1 d5 3a 04 00 00 00 04 00 00 00 04 00 00 00
       0.0016298871 6e-45 6e-45 6e-45
000010 40 bc 38 bb 3a 71 27 be e0 fc c2 bb d8 d8 b6 ba
       -0.0028188378 -0.16351786 -0.005950555 -0.0013950123
000020 b8 03 4a 3d 80 01 4b 39 38 95 27 bc 77 63 92 bb
       0.049319953 0.00019360147 -0.010228448 -0.0044674235
000030 68 4a dc bb 04 00 00 00 68 8c 00 bc b0 c6 9f bb
       -0.006722737 6e-45 -0.007845975 -0.0048759803
000040 68 7c bf bb 80 22 a8 b9 68 7b b1 bb 8f 0c 2b bc
       -0.005843688 -0.00032069162 -0.0054163225 -0.010440006
000050 66 98 d2 3b 3d 30 9e bc 2a 6c 01 3d f4 08 08 bc
       0.0064268587 -0.019310111 0.031597294 -0.008302916
000060 41 72 2d bc 28 0c 2e 3c 86 54 93 3c 9a d5 c5 3b
       -0.010586322 0.010623015 0.01798464 0.006037426
000070 fa a3 23 bc dc a8 84 3e c5 47 78 3c 16 1f 41 bc
       -0.0099878255 0.2591008 0.01515383 -0.011787197
000080 c6 9e aa bb d4 48 e2 bb 0e 62 64 bb 6e db c9 bb
       -0.0052069155 -0.0069056544 -0.0034848484 -0.0061601913
000090 00 0d 99 bb 04 00 00 00 5e 33 70 bc f8 c5 a7 bc
       -0.004670739 6e-45 -0.014660684 -0.020480141
0000a0 f5 ab c9 3c b4 8d 95 bb 68 3f f7 bb 32 9b 11 bc
       0.024618128 -0.0045640115 -0.0075454004 -0.008887099
0000b0 96 53 e5 bb 40 63 8b bb fe 5d 8c bc f8 8d af bb
       -0.0069984896 -0.004253775 -0.017134663 -0.0053575
0000c0 61 8d 71 bc ac 4c b1 bb 3a 8d d7 3b 04 00 00 00
       -0.01474318 -0.0054107513 0.006578115 6e-45
0000d0 00 06 46 3b 48 28 f0 3a 00 00 00 00 e7 98 60 3d
       0.0030215979 0.0018322552 0.0 0.05483332
0000e0 04 00 00 00 70 50 16 bc 5f 8e ba 3b 97 88 ba 3c
       6e-45 -0.009174451 0.0056932415 0.02277021
0000f0 4c c8 f3 3a f4 00 cd bb 98 ba f9 bb 04 00 00 00
       0.0018599122 -0.006256217 -0.0076211207 6e-45
000100 04 00 00 00 13 b0 bf bb bc d4 81 bc 2e 64 ca 3c
       6e-45 -0.005849847 -0.01584851 0.024705973
000110 99 2d 53 bc 94 ec 08 be a6 33 19 3e 80 e9 6f 3a
       -0.012889289 -0.13371497 0.14961109 0.00091519207
000120 a4 8d 28 bc 80 3e 71 b9 04 00 00 00 68 ef d0 3b
       -0.010287676 -0.00023006834 6e-45 0.0063761957
000130 04 65 be bb 6c 4f 98 bb 50 ef 91 bb 78 03 3f bb
       -0.005810382 -0.0046481397 -0.004453577 -0.0029146355
000140 91 2b c3 bd 04 00 00 00 24 e2 1a 3c 3d a0 a6 bd
       -0.09529794 6e-45 0.00945333 -0.08136032
000150 1b 9a 5e 3d 04 00 00 00 d3 38 d3 bb f4 c0 a7 bb
       0.054346185 6e-45 -0.006445983 -0.0051194374
000160 86 f4 00 38 e8 44 8c bb d3 52 89 bb 04 00 00 00
       3.074531e-05 -0.004280675 -0.0041907816 6e-45
000170 d9 9a 58 3c 10 9e 8e 3b 44 6c cc bb 34 c1 a0 bb
       0.013220512 0.0043523386 -0.006238492 -0.004905844
000180 14 56 f2 bb 00 26 99 bb 4c a8 1f bc e0 bf af 3a
       -0.007395515 -0.0046737194 -0.009744715 0.0013408624
000190 04 00 00 00 50 44 e8 bb 20 65 11 bc 70 b9 12 3b
       6e-45 -0.0070882216 -0.008874208 0.0022388361
0001a0 ec 11 dc bb 48 31 37 3c 80 13 1a ba a4 39 90 bb
       -0.0067160036 0.011181183 -0.00058775395 -0.0044014025
0001b0 98 5e 51 3b 50 77 88 ba 2d 33 dc bb 10 49 f7 3b
       0.0031947251 -0.0010411534 -0.006719968 0.0075465515
0001c0 e0 4c 85 3b 99 74 b9 ba 0c 5f 01 bb 38 03 e1 bb
       0.004068002 -0.0014149129 -0.001974049 -0.006866839
0001d0 04 00 00 00 64 39 03 bb 7e d1 4b 3d 04 00 00 00
       6e-45 -0.002002322 0.049760334 6e-45
0001e0 d4 04 03 bc 00 26 8e ba 64 0c 13 3d 18 2c c2 3b
       -0.007996757 -0.0010845065 0.03590049 0.0059256665
0001f0 86 73 eb 3a 90 76 d7 bb 04 00 00 00 6a 51 b6 b6
       0.0017963506 -0.006575413 6e-45 -5.4335005e-06

exp_avg_sq f4 [128]
000000 1d f9 9f 3b 2d 68 16 3a ff 2a 2d 37 ea 34 fe 2b
       0.0048819915 0.00057375693 1.0321614e-05 1.8062472e-12
000010 27 22 8c 3b 4a fc ac 3e 22 8d b5 3b c9 05 d4 3b
       0.004276532 0.3378623 0.005540506 0.006470416
000020 30 4f b2 3d b0 86 7d 3c 18 d6 6f 3c f6 a0 0a 3b
       0.0870651 0.0154740065 0.014638446 0.002115307
000030 54 03 1d 3c f3 1f 63 02 da 9e de 3b 70 20 2f 3b
       0.009583313 1.6686495e-37 0.006793839 0.0026722215
000040 15 e6 60 3c 56 58 b2 3b 4d 9a e9 3b 8b ed 1e 3c
       0.013726731 0.0054426594 0.00712899 0.009700189
000050 ec 98 4f 3b 32 6b 34 3c 02 7a 50 3c df 27 04 3a
       0.0031676842 0.0110118855 0.012724401 0.00050413416
000060 54 86 84 3a 74 8e de 3d 4d e5 9e 3a 07 a3 13 3c
       0.0010110834 0.108670145 0.001212278 0.009011037
000070 72 b9 78 3d 2f 13 b4 3e 4f 61 38 3a 2d 71 74 3c
       0.06072373 0.35170886 0.0007033543 0.014919561
000080 db 5a 63 3b bd 90 e7 3b ee a2 fa 3a ee 66 99 3b
       0.0034691605 0.0070668147 0.0019122043 0.0046814596
000090 40 7e 92 3b 33 53 d1 2d f5 7e 16 3b a9 fd 7f 3c
       0.0044706166 2.3797497e-11 0.0022963856 0.015624442
0000a0 37 52 03 3b d3 e0 00 3c ae 4d a1 3d f9 22 69 39
       0.0020038018 0.007866102 0.07876144 0.0002223364
0000b0 74 e8 b3 3b 58 1b 86 3c a4 73 10 3b 3d ce b5 3b
       0.005490357 0.01637046 0.0022041583 0.005548267
0000c0 92 2e e2 3a bd b8 c9 3b f7 21 41 3c 82 8b a9 38
       0.0017256311 0.0061560557 0.011787883 8.084533e-05
0000d0 fa b1 df 3d 36 4e 2f 3b 00 00 00 00 bd aa f3 3b
       0.10922618 0.0026749498 0.0 0.007436125
0000e0 ea 79 af 30 4b 88 94 3b 81 a4 5e 3b b2 64 87 3b
       1.2767576e-09 0.004532849 0.0033972564 0.004131877
0000f0 35 97 5c 3a 54 fc 20 3c 3b 46 f6 3b a8 a7 13 2f
       0.00084148656 0.009825785 0.0075156963 1.3429136e-10
000100 f4 01 00 00 00 e0 9b 3b fb 71 56 3b 91 a0 06 3c
       7e-43 0.0047569275 0.0032721746 0.008216993
000110 e7 af b9 3a 72 5f 01 3f 74 65 99 3d 7f f6 dc 3b
       0.0014166803 0.50536263 0.07490054 0.006743252
000120 ba b5 37 3c 00 3f 50 3b c5 e1 55 2b 8f 48 a5 3c
       0.011212761 0.0031775832 7.598612e-13 0.0201762
000130 80 08 c1 3b 7a 7d 72 3b 32 f1 71 3b 58 38 7e 3b
       0.005890906 0.003700106 0.0036917445 0.0038790908
000140 8e 23 8d 3e a7 f1 ba 34 20 73 df 39 c0 4b 14 3e
       0.2756619 3.4821025e-07 0.0004261965 0.14482021
000150 d8 41 22 3c f4 01 00 00 30 35 96 3b 7d 31 dc 3b
       0.009903394 7e-43 0.004583977 0.0067197667
000160 d9 f2 3b 3a 77 d4 11 3c 3f 05 e3 3a d9 17 d2 31
       0.0007169671 0.008900753 0.0017320289 6.1145156e-09
000170 b9 bc ef 3c cb 60 d8 3d c2 23 b5 3d db 03 0f 3c
       0.029264795 0.10565337 0.08844711 0.008728947
000180 b1 83 f8 3b e2 24 a6 3b d7 fb 11 3c e6 37 da 3c
       0.007584058 0.0050703147 0.008910141 0.026637983
000190 f4 01 00 00 51 bc 0d 3b 08 15 1a 3c b5 0d 8d 3c
       7e-43 0.0021627138 0.009404428 0.01721845
0001a0 7a 43 ec 3b d8 64 ad 3d 71 50 9a 3d d0 cc 72 3b
       0.0072101923 0.084665 0.07534874 0.0037048347
0001b0 e2 16 9e 3b 64 3a 30 3c cf 1b 0d 3b aa 19 b7 3d
       0.004824505 0.010756109 0.0021531468 0.08940442
0001c0 c3 91 c8 3d d7 49 ef 39 68 a2 37 3b 00 91 b6 3b
       0.09793427 0.00045640647 0.0028020386 0.0055714846
0001d0 f4 01 00 00 1a af 37 3b 00 21 f1 3b f4 01 00 00
       7e-43 0.0028027953 0.0073586702 7e-43
0001e0 e7 30 05 3c 7d 10 98 3b 03 ca da 3d c0 d8 a4 39
       0.008129335 0.0046406374 0.10683062 0.0003144201
0001f0 59 75 b0 37 c9 6d 85 3c bf 33 6b 2b 9f e1 c6 38
       2.103548e-05 0.016287701 8.3560584e-13 9.483401e-05

exp_avg f4 [2, 128]
000000 b8 44 8a 3b 04 00 00 80 04 00 00 80 04 00 00 00
       0.0042196177 -6e-45 -6e-45 6e-45
000010 56 08 9c bc 3a 58 4b bd bc 98 ea bc 35 68 b3 bc
       -0.019046944 -0.049644686 -0.028637283 -0.021900276
000020 be 20 31 35 f0 5a 77 bc a2 d0 7c bc 9f 13 28 bc
       6.5985284e-07 -0.015097365 -0.015430601 -0.010258584
000030 16 85 0c bd 04 00 00 80 d5 9d cc bc 2d 54 99 bc
       -0.03430661 -6e-45 -0.024977604 -0.018716896
000040 28 5f 16 bd e4 88 36 bd 8a c2 0e bd c0 20 0a bd
       -0.03671184 -0.044564143 -0.034853496 -0.03372264
000050 6c ce 26 bd 25 a9 aa bc 40 d8 df bb dd 31 0c bc
       -0.040724203 -0.020832608 -0.006831199 -0.00855681
000060 c1 60 b0 bc 34 95 bc bd 5b 27 84 bc 3c e1 ed bc
       -0.02153051 -0.09208146 -0.016132047 -0.029038064
000070 69 a4 17 bd 0b d5 3f bb 71 7a 39 bc 44 d3 08 bd
       -0.037022028 -0.002927127 -0.011320696 -0.033404604
000080 89 eb 98 bc d9 5c c2 bc 29 ef 01 bc b3 88 f3 bc
       -0.018667 -0.023725914 -0.007930555 -0.02972827
000090 d6 a8 7c bc 04 00 00 00 d0 64 80 bc 5e 82 e2 bc
       -0.015421113 6e-45 -0.015673071 -0.027650055
0000a0 8f b3 57 bc 86 55 a1 bc 99 e9 2a 3d dd f0 84 ba
       -0.013165369 -0.019694101 0.041726682 -0.0010142584
0000b0 e8 00 d9 bc 1b ce 24 bd 0a 4b 89 bc c9 70 d7 bc
       -0.02648969 -0.04023562 -0.016759414 -0.026298897
0000c0 81 0e 8b bc 3d 86 86 bc 23 1c 1a bd 04 00 00 00
       -0.01697469 -0.016421432 -0.03762449 6e-45
0000d0 c4 e0 00 bd 54 0e 0a bd 00 00 00 00 3c 67 80 ba
       -0.031464353 -0.03370507 0.0 -0.0009796391
0000e0 04 00 00 80 f1 60 d9 bc 22 31 60 ba e4 25 d4 bc
       -6e-45 -0.026535483 -0.0008552243 -0.025896974
0000f0 ff 8b cd bb 45 44 11 bd ba dd fd bc 04 00 00 80
       -0.0062727924 -0.035465498 -0.030989517 -6e-45
000100 04 00 00 80 24 eb 3b bc aa 5d 6e 3a 6c 51 1b bd
       -6e-45 -0.011469636 0.00090929365 -0.037919447
000110 d6 8a 28 bc f9 d6 51 bb e1 f2 e5 bb c2 17 c4 bc
       -0.010287007 -0.0032019003 -0.007017479 -0.02393711
000120 3f e2 02 bd 8c 8f c8 bc 04 00 00 80 d5 31 8c bd
       -0.031954046 -0.024482511 -6e-45 -0.06845442
000130 14 22 89 bc 2f f6 15 bc 21 46 65 bb 9e 79 97 bc
       -0.016739883 -0.009152933 -0.0034984427 -0.018490609
000140 28 86 2f bd 04 00 00 00 9d 56 8e bc 2a 9f 97 bc
       -0.04285255 6e-45 -0.017375285 -0.018508513
000150 ad 7c 90 bb 04 00 00 00 99 3b 22 bb cc e3 26 bc
       -0.0044093938 6e-45 -0.0024754761 -0.010186147
000160 9b 6a a4 b6 bc da 9b bc 0f c9 29 36 04 00 00 00
       -4.8999914e-06 -0.0190252 2.5299994e-06 6e-45
000170 b6 1a 91 bd 44 ce a1 bd a2 63 44 3d 21 79 1f bd
       -0.07085173 -0.0790067 0.04794658 -0.038933877
000180 94 c4 f6 bc 39 ee ea bc b0 02 46 bc d1 3a 88 bd
       -0.030123033 -0.028678047 -0.012085602 -0.06651843
000190 04 00 00 80 2e ec 4a bc 1a 4e f9 bc a2 02 1c bc
       -6e-45 -0.012385411 -0.03043275 -0.009522112
0001a0 6a 2e e2 bc 25 69 31 3d 89 15 bb bd 14 7f 88 bc
       -0.027610023 0.043313164 -0.09134967 -0.016662158
0001b0 8b 67 64 3c fc 2d f3 bc 27 0e 3c bc ac bc 17 3d
       0.013940702 -0.029685013 -0.011477984 0.037045166
0001c0 f6 09 0d bd 04 00 00 80 c9 d5 98 bc 19 57 e2 bc
       -0.034433328 -6e-45 -0.018656628 -0.027629422
0001d0 04 00 00 00 81 5b 86 bc 6f 0e b4 bb 04 00 00 80
       6e-45 -0.016401054 -0.0054948847 -6e-45
0001e0 78 7a 90 bc 7e a1 ea bc be de ba b9 91 4e 7d ba
       -0.017636523 -0.028641459 -0.0003564264 -0.00096628914
0001f0 71 bc 2c bb da 47 1d bd 04 00 00 80 e6 0a c2 35
       -0.0026357437 -0.0383986 -6e-45 1.4457298e-06
000200 2e 7b cf bc 04 00 00 80 04 00 00 80 04 00 00 80
       -0.025327291 -6e-45 -6e-45 -6e-45
000210 20 eb cb ba 9c a1 79 3c 50 ba 80 3b ed 00 a6 3c
       -0.0015557744 0.015236285 0.00392846 0.020264113
000220 77 05 30 ba 08 a5 57 bd 00 28 86 39 80 50 78 ba
       -0.00067146815 -0.05264762 0.00025588274 -0.00094724447
000230 d8 fd 74 3c 04 00 00 80 3a fa 70 bc a0 ec 32 3a
       0.014953099 -6e-45 -0.014708096 0.0006825421
000240 be 69 b2 3c 2f aa e4 3c 20 15 74 ba b7 4f 55 3d
       0.021778937 0.027913181 -0.0009311009 0.052077975
000250 1e 9b 40 3d e1 9d 22 bd a6 5b 35 b8 62 f8 8c bc
       0.04702293 -0.039701346 -4.3239117e-05 -0.017208282
000260 ad c5 ea bc 48 79 d4 bb e0 cc 23 bc 7c c6 4d 3d
       -0.028658712 -0.0064841844 -0.0099975765 0.050238118
000270 45 67 06 3d c6 7c b0 37 e3 82 36 bc e4 c9 31 bc
       0.03281333 2.1038937e-05 -0.011139604 -0.010851357
000280 38 8b 7d bb 48 f0 bd bb 10 ce 83 ba 8a e5 0f 3c
       -0.0038687717 -0.005796466 -0.0010055918 0.008782754
000290 a0 eb f4 ba 04 00 00 80 c4 e4 e4 bc 59 24 50 bd
       -0.0018685944 -6e-45 -0.027941115 -0.050815914
0002a0 19 6a 87 bc c8 74 7a bb f8 24 a0 bb 93 29 3d ba
       -0.016530083 -0.003821658 -0.0048872195 -0.0007215973
0002b0 80 90 bf ba 80 24 2e 3b 91 af 01 bd 70 f9 99 3b
       -0.0014615208 0.0026572049 -0.031661574 0.0046989247
0002c0 ed 75 e3 bc 50 5a a9 3b 36 b5 2e 3d 04 00 00 80
       -0.027766192 0.005168237 0.042653285 -6e-45
0002d0 87 8a 1d 3d 4a 88 e6 3c 00 00 00 00 b5 8e 78 ba
       0.038462188 0.02814116 0.0 -0.0009481714
0002e0 04 00 00 00 f4 2e 0e 3d 6d 9c c1 bc b8 34 c7 bc
       6e-45 0.034712747 -0.02363416 -0.02431713
0002f0 0d a4 51 bc 60 a9 90 ba 58 31 f8 bb 04 00 00 80
       -0.01279546 -0.0011036806 -0.0075742416 -6e-45
000300 04 00 00 80 88 75 18 bb 00 1a 09 bb fa 66 92 3b
       -6e-45 -0.0023263413 -0.0020920038 0.004467842
000310 68 2b dd bc b9 3f ba 3b fd af cf ba 75 46 32 3d
       -0.026998237 0.005683866 -0.0015845295 0.043524224
000320 92 89 51 bc 2c 71 79 3c 04 00 00 80 f8 69 6b bb
       -0.012789147 0.015224736 -6e-45 -0.0035921317
000330 58 dc e9 bb 70 e2 2f 3b 20 9c a0 ba 8a 40 02 bc
       -0.0071368627 0.0026837848 -0.001225356 -0.007949958
000340 a6 9d 82 3c 04 00 00 00 6a 6f b5 b9 f8 35 a9 3b
       0.015944313 6e-45 -0.0003460602 0.0051639043
000350 dc 33 26 bb 04 00 00 80 b0 36 ac 3b f0 35 10 3b
       -0.00253605 -6e-45 0.0052555427 0.0022004806
000360 f0 d6 22 38 84 aa a7 bb d1 00 08 b9 04 00 00 80
       3.8823986e-05 -0.0051167626 -0.00012970275 -6e-45
000370 10 a6 6b 3d 88 10 d1 bb b8 58 bd bb 38 46 e4 3c
       0.057531416 -0.0063801445 -0.0057783984 0.027865514
000380 70 2e 4b bc a0 26 a4 3a fa e4 22 bd ac 0a 91 bb
       -0.012401208 0.0012523718 -0.03976915 -0.004426321
000390 04 00 00 80 91 54 26 bc d2 e9 1e bc 34 e7 3e bd
       -6e-45 -0.010151998 -0.009699302 -0.04660721
0003a0 b0 fe a3 bb 18 4d 85 bb f8 9d ce bb 70 d2 77 3b
       -0.0050047264 -0.004068028 -0.0063054524 0.003781464
0003b0 c8 62 45 3c 85 6f 43 3d 87 2a 94 bc 10 b3 89 bb
       0.012047477 0.047713775 -0.018086685 -0.004202254
0003c0 1a 4c 05 3d b7 0a 33 b8 f0 70 3d bb 84 8f ce bb
       0.03254328 -4.2686905e-05 -0.0028906427 -0.0063037295
0003d0 04 00 00 00 cc 5f 94 bb 59 8d 48 bb 04 00 00 80
       6e-45 -0.0045280214 -0.0030601828 -6e-45
0003e0 60 83 b7 3a 5b ad ab 3c 78 3b 2c bb 77 2c b8 bb
       0.0014000945 0.020956686 -0.0026280563 -0.005620535
0003f0 64 fd fe ba 7a e9 bf 3c 04 00 00 80 04 00 00 00
       -0.0019454178 0.02342676 -6e-45 6e-45
